model.pth (torch, 838791 bytes, 9 tensors)

lstm.weight_ih_l0 f4 [320, 409]
00000000: e092 793c 3609 12bd 584c babc 4437 983d
00000010: 807b 02bb 64b5 173d c041 683c b468 1ebd
00000020: 0d0e 6fbd 57a0 8dbd 2c26 b5bc 5a1e 883d
00000030: f088 42bd e040 a63d 6a92 3bbd d28d d1bd
00000040: 5074 48bc 2879 0dbc 7879 d43c e8d7 523d
00000050: 68b8 143d eeb4 14bd 2058 2abc 3a3f 9f3d
00000060: bebc dd3d 78e3 c03c 2e26 46bd d96c 70bd
00000070: 008e 0cba 1094 8f3c b822 ebbc 0031 e43c
00000080: 6456 b0bd 7036 073d 8aec c73d 4777 aabd
00000090: c998 68bd 4052 0d3d f22b a3bd dee2 ce3d
000000a0: e0b7 303d 6059 46bd f087 0c3d 7012 f93c
000000b0: d81a 533d d420 323d acf6 523d 4c54 d33d
000000c0: d00f d2bd 58bf 9f3d b65c 02bd 84cf d23d
000000d0: 1cdf 0a3d d853 183d c42a ba3d a0fe 52bb
000000e0: 40d2 a23d 3667 af3d edda a9bd aa39 6dbd
000000f0: 30af ae3c 60fd 033c 3a4c c23d 3c9d 64bd
00000100: aa77 33bd 1615 b43d bb9b 4fbd c825 3f3d
00000110: 04ff c3bc a47f a93d 4a9c 30bd 925c c43d
00000120: e632 d2bd 063f 9cbd 50ea a2bd 722f 36bd
00000130: a894 743d 9a6b c93d 6e04 40bd 3c46 bcbd
00000140: 590f c4bd 93fb bdbd 20de fb3c a6a0 94bd
00000150: aefd be3d 325f b73d 0c82 013d a059 1bbd
00000160: 6518 71bd 341c 4c3d 2ccd 90bc 4025 483d
00000170: 2639 a13d faed c0bd 00ba 4539 48fb 953c
00000180: 1229 e3bd 2c74 5e3d 48e5 c23c 9032 eb3c
00000190: 50b2 773c 92ea 1ebd 6e62 e33d dc1d 923d
000001a0: 20e4 a4bc d62c b63d b265 1ebd aace 5cbd
000001b0: 3ece 82bd f0c1 ce3c dced a33d a00f 8d3d
000001c0: 84f2 ddbd 1aec c13d fe9d d83d e069 b1bd
000001d0: 90df a93c 7659 43bd f6fc a33d 7c2d 9dbd
000001e0: f0af a23d 4693 c53d f49c cbbc 2c1c 833d
000001f0: 606a 723d 5c5f 2b3d c0a8 593d 20b3 8cbd
00000200: 924d 33bd 6f2b b2bd 2574 92bd c06d 2f3c
00000210: 10b9 423c 0ef4 c73d ea38 b33d 007f e13d
00000220: 1394 d1bd 5a1f 1bbd fee6 a4bd aec1 72bd
00000230: 5889 583d ccf5 a43d 8b1e 78bd b8c7 983c
00000240: 2ecd d6bd dcb0 abbd 3091 d7bd 78ec aa3c
00000250: 109d c73b 70be 68bc b006 9a3d 001a aa3b
00000260: 66ef c93d a0a8 dcbd e7d6 b5bd 8029 3f3a
00000270: 807b 75ba c18c 9dbd 50c9 b03d 4fd1 a3bd
00000280: 21e5 dabd 78bd ddbc 6e23 ca3d 84c3 ae3d
00000290: 00a2 01b9 d6d3 a7bd b008 d63d 6a8f 08bd
000002a0: 7a11 cabd 3050 573c 5cfb 4e3d 70a8 31bc
000002b0: 3445 7e3d f6e8 9d3d 18d2 3abc 4d31 5bbd
000002c0: 661c ba3d 6c8e 933d 4cb3 b13d b197 adbd
000002d0: 6ace 87bd 1419 bdbc 580d d0bc 386a a23d
000002e0: 59b7 d5bd b868 a43c 126b 1abd 001c 2bbd
000002f0: ca0a 6dbd 5478 45bd 1a1c c93d bcec 803d
00000300: 0272 a53d 3c4c 7a3d dcc5 be3d be80 c23d
00000310: 0095 a83d 39ec e3bd d0ea 973b 98bd fabc
00000320: 6869 41bc 263d 8ebd 8411 85bd ba8a a73d
00000330: f943 7bbd 1467 01bd b073 d43d 9c22 3c3d
00000340: 4a7e acbd c620 cf3d a859 ab3d 800e 9b3c
00000350: 24f2 a3bd c0fd 9e3c cc19 e1bc a82c a63c
00000360: 3085 bcbb 84a8 1a3d 20f0 7cbc 7edd 2dbd
00000370: d205 e03d 1c38 e1bd 1a80 bc3d c8d3 5dbc
00000380: 081d 73bc 046b a73d 0491 3abd 58c9 903c
00000390: 124e 0dbd 0084 2cb9 67c9 6fbd e485 a63d
000003a0: 20a3 88bb 3ee5 84bd 902e 98bc 14c7 1a3d
000003b0: b42d e9bc 60d5 433d b6ef a3bd 683c 693d
000003c0: 96c5 c03d c5d7 75bd 90b1 ee3c dc0b 293d
000003d0: 8866 8bbc 201d 38bd 34ab 763d 0ada cb3d
000003e0: ace9 d4bc 00b9 0c3d e064 203d 52db 05bd
000003f0: 664f d33d 403b 61bc 6cd8 a13d 5b34 8bbd
0.015232772 -0.035653315 -0.022741482 0.07432416 -0.0019910038 0.037038222 0.014175832 -0.03867407
-0.05836301 -0.06915348 -0.022112928 0.06646414 -0.047493875 0.08117843 -0.04579393 -0.10232128
-0.012234762 -0.008634843 0.025936827 0.051475435 0.036308676 -0.03630536 -0.010396987 0.077757314
0.10827015 0.023545966 -0.048376255 -0.058697555 -0.0005361736 0.017526656 -0.028703079 0.027855396
-0.08610228 0.0330109 0.09761913 -0.083235316 -0.056786332 0.034502268 -0.07967366 0.10101865
0.043144107 -0.04842508 0.034309328 0.0304043 0.051539272 0.04348834 0.051504776 0.10318813
-0.10256922 0.07800168 -0.031826697 0.10293487 0.03390418 0.037189335 0.09090188 -0.0032195225
0.07950258 0.08564608 -0.0829371 -0.05791632 0.02132377 0.008056015 0.09487195 -0.055814013
-0.043815292 0.08793084 -0.050685626 0.04666689 -0.023925312 0.08276299 -0.0431178 0.09587969
-0.10263614 -0.07629208 -0.07954848 -0.04447884 0.059712082 0.098349765 -0.046879224 -0.09193084
-0.0957324 -0.092764996 0.030745566 -0.07257204 0.09325729 0.08953704 0.031618163 -0.03792727
-0.058861155 0.049831584 -0.017675959 0.04886365 0.07872228 -0.094203904 0.00018856674 0.018308297
-0.11091818 0.05431001 0.02379097 0.028710634 0.015118197 -0.038797922 0.11102758 0.071346015
-0.02012831 0.088952705 -0.038671203 -0.053908028 -0.06386994 0.025238961 0.080043525 0.06887746
-0.10837272 0.09468861 0.105770096 -0.08662772 0.020736486 -0.04769274 0.08007233 -0.07674691
0.07943714 0.09647231 -0.024855115 0.06401858 0.05918348 0.04183899 0.05313945 -0.06870103
-0.04377515 -0.086996906 -0.07151059 0.010707319 0.011884943 0.097633466 0.0875109 0.110105515
-0.10233321 -0.037871696 -0.08051871 -0.05926674 0.052865356 0.080546945 -0.060576003 0.01864992
-0.10488354 -0.083833426 -0.10525739 0.02086471 0.0060917214 -0.01420556 0.07520807 0.0051910877
0.09860115 -0.1077435 -0.0887888 0.0007292256 -0.0009364411 -0.07692862 0.08632147 -0.07998907
-0.10688234 -0.027067885 0.09870039 0.085333854 -0.00012362748 -0.081947014 0.10450876 -0.033339895
-0.09866615 0.013141677 0.050532684 -0.010843381 0.062077716 0.077104494 -0.011402629 -0.053513814
0.09087448 0.07204899 0.08676776 -0.084761985 -0.06631167 -0.023083247 -0.025396988 0.07930416
-0.104353614 0.020069465 -0.037699766 -0.04177475 -0.057871617 -0.048210457 0.09819813 0.062951535
0.08078386 0.06110786 0.093150824 0.09497212 0.082315445 -0.1112904 0.004636146 -0.030607983
-0.011804916 -0.06945257 -0.064974815 0.08180757 -0.06134412 -0.031592444 0.10373628 0.045931444
-0.08422525 0.10113673 0.0836671 0.018927813 -0.08005169 0.019408107 -0.027478121 0.020284966
-0.005753182 0.037758365 -0.01543811 -0.04244756 0.1093861 -0.1099703 0.09204121 -0.013539262
-0.014838465 0.081747085 -0.045548454 0.017674133 -0.03449828 -0.00016452372 -0.05854168 0.08131006
-0.0041698366 -0.06489037 -0.01857689 0.037787512 -0.028464176 0.047810912 -0.080047056 0.056942374
0.094126865 -0.060020227 0.029137403 0.041271076 -0.017016664 -0.04494965 0.060221866 0.09953697
-0.02599033 0.034356117 0.039158702 -0.032679863 0.103178784 -0.013747036 0.07902607 -0.067970954

lstm.weight_hh_l0 f4 [320, 80]
00000000: 30cc 593d 50c0 803c 189a 063d 94ce 8cbd
00000010: 6481 a1bd 48af 063c 05c6 e2bd 56f1 d6bd
00000020: a006 0a3b 3cf4 f2bc d647 5fbd 524c d63d
00000030: 0558 a2bd 822d 823d fe37 3bbd e082 a9bc
00000040: aeea d73d 2a80 b83d bcec c5bc c050 853b
00000050: 80a4 6cba 8048 05bd c0d2 9c3c 208f c83c
00000060: 689a 973d fc59 e0bd 2014 de3d 7c56 a33d
00000070: 8022 b03d 2141 d1bd b043 d13d 985b 3d3d
00000080: 40f2 ef3a c0f1 0fbb c1d9 67bd 454c a8bd
00000090: c46c 0fbd e015 a43c c8a6 b2bd cc63 afbd
000000a0: cc09 dfbc 7ceb c13d 285a 8fbc 1ed2 8b3d
000000b0: 38d5 293c aebf 943d 64b6 a0bc b469 d93d
000000c0: 18d6 2ebc 3807 ed3c 80a9 61bb b8bb 323c
000000d0: 1c12 b63d 40e3 b2bd 16f7 66bd 5819 2f3d
000000e0: 248f 423d 308e 97bc 9089 683c 02bb da3d
000000f0: 5936 ddbd 6132 9bbd 670e dbbd ecb8 a4bc
00000100: 6c82 8cbc b594 cbbd 0c3f 753d 977f 61bd
00000110: dc23 1ebd 60ff 6bbb 7079 ad3c acf5 793d
00000120: 3cc4 603d 2efa 39bd dd00 6abd 006e f83b
00000130: 30a0 c53c 64a0 373d 50a5 243c 5ca3 463d
00000140: 0cef 5dbd 200c 54bc c6bb d93d 5a01 963d
00000150: 4c93 1f3d 6467 ae3d c813 a73d b46a 0a3d
00000160: 0004 173c 0313 68bd ece9 283d e8a6 84bc
00000170: 9411 d43d 0840 263d 41ae 8abd baee abbd
00000180: dc54 d9bd 98ac a4bc 9051 453c 1055 aebc
00000190: 41c5 4abd 20b3 093b a0e6 86bd 92f1 d13d
000001a0: 2ec2 af3d c425 a8bc 2eb1 af3d b426 583d
000001b0: ec3e 58bd a0bd 0bbc fc07 a6bd 1684 e03d
000001c0: e22a abbd 28d6 853c bcc3 083d 67c0 c0bd
000001d0: 460e c9bd 06de babd 9c46 0e3d 4cac 2c3d
000001e0: cad9 883d aa97 ce3d 60ac 5fbb 66d7 35bd
000001f0: 3072 84bb 58ab e4bc 38aa f93c 98c4 4abc
00000200: 5476 a8bd 54c3 0a3d c0ae 883c d83b b8bc
00000210: 40e8 b93c 088b 173d 1abd 973d 580c a4bc
00000220: 9446 49bd c4b0 a83d b0a9 d9bb 8879 dc3d
00000230: e6bb d63d fcd4 d63d 40e3 253c ee5f 09bd
00000240: 8476 88bc c883 933d 3f06 75bd a42e e3bd
00000250: 900b 753d f6b3 96bd 9830 f63c 0ba8 57bd
00000260: eac7 a2bd 101d e03c 66f5 b73d c04c d1bc
00000270: 6037 1b3c 6408 393d d21a b93d b20a 7fbd
00000280: 98d4 4f3d 6041 143d 7b4c 6abd 5845 ad3c
00000290: d6c5 c23d 6c30 003d 984f a3bc 1afe d03d
000002a0: dc89 61bd 446f 2f3d 0032 be3a df86 4bbd
000002b0: aaad 61bd f29e d43d 0cee c9bd 4a7e 52bd
000002c0: f471 533d fc45 063d d23a 65bd d4a9 c03d
000002d0: 80b4 193b f6ff cabd 802b 98bd 8038 2d3d
000002e0: cf22 b2bd da37 dd3d 80d6 0a3a 142b 003d
000002f0: 4a51 8dbd e090 ce3c 0cb0 bc3d 1702 debd
00000300: 261a 0bbd b809 efbc 8ab6 acbd 94b6 543d
00000310: 9830 8b3c ccbd bcbc 6888 873c 609a 393c
00000320: 0e0b 95bd e02a 74bc 24ec ce3d 37d8 bbbd
00000330: c004 30bb 9087 1c3d 0e90 d3bd 3848 e03d
00000340: 40dc 97bd 60d2 893d 5806 a23c 2dad 82bd
00000350: 3817 cf3c 0ccd 98bd 1458 f7bc 40d8 2cbc
00000360: e8e3 363c a8e1 f53c c451 983d 2ae1 3bbd
00000370: 10ae a93d b3e1 62bd cd92 76bd 92f3 ba3d
00000380: 5c4e 99bd acb0 c23d 94ad 8c3d 481c 233c
00000390: eab6 e3bd 3ba9 dabd 8c99 b8bd 3093 abbd
000003a0: cb61 a0bd e4c6 a23d f042 5c3c 5068 6c3c
000003b0: 5e15 923d 00f2 283b dce3 a23d 3e4d 9ebd
000003c0: 6037 053d e1e7 bebd 1c63 183d c9f2 c8bd
000003d0: 3625 cbbd 24d2 653d 905f e53c b03c a13d
000003e0: 70bb 02bc 7ce1 1dbd 94df 073d b272 b53d
000003f0: fe0e 34bd d05c ff3c b71e d0bd a809 da3c
0.053173244 0.015716702 0.0328618 -0.06875339 -0.078860074 0.008220501 -0.110729255 -0.1049525
0.0021061078 -0.029657476 -0.054511867 0.10463776 -0.07926945 0.06356336 -0.045707695 -0.020692289
0.105428085 0.0900882 -0.024160735 0.004068464 -0.0009027198 -0.032539845 0.019143462 0.02448231
0.074024975 -0.10954663 0.10843682 0.0797548 0.0860033 -0.102175005 0.102179885 0.04622993
0.0018306449 -0.0021964163 -0.05660415 -0.08217672 -0.035015836 0.020029962 -0.08723217 -0.085639566
-0.027226351 0.09468743 -0.017499045 0.06827186 0.010365777 0.072631225 -0.01961822 0.106158644
-0.010671161 0.028934106 -0.0034433305 0.010909013 0.08890173 -0.08734751 -0.056387983 0.04274878
0.04749979 -0.018500417 0.014192954 0.106802 -0.108013816 -0.075779684 -0.106961064 -0.020107709
-0.017152034 -0.09940473 0.05987458 -0.05505332 -0.038608417 -0.003601037 0.02117607 0.061025307
0.054874644 -0.045404606 -0.05712973 0.0075814724 0.024124235 0.044830695 0.010049179 0.048495635
-0.05418305 -0.012942344 0.10631518 0.073244765 0.038958833 0.08515814 0.0815807 0.033793166
0.009217262 -0.056658756 0.04123871 -0.016192868 0.10354915 0.04058841 -0.067715175 -0.08395143
-0.10611889 -0.02010183 0.012043372 -0.021280795 -0.049504522 0.0021011308 -0.06586957 0.10251154
0.08581959 -0.02052582 0.08578716 0.052771285 -0.052794382 -0.008529097 -0.08106992 0.109626934
-0.083577886 0.01633747 0.03338979 -0.09411698 -0.098171756 -0.09124379 0.034735307 0.042156503
0.06682165 0.100875214 -0.0034129843 -0.044394873 -0.0040419325 -0.027913734 0.030476674 -0.012375973
-0.08225694 0.033877686 0.01668489 -0.022489473 0.022693753 0.036997825 0.07409115 -0.020025417
-0.049139574 0.0823684 -0.006642543 0.10765368 0.104850575 0.10489842 0.010124981 -0.03353875
-0.016658075 0.0720287 -0.05982041 -0.1109288 0.05982548 -0.073585436 0.030052468 -0.052650493
-0.07948287 0.027357608 0.08982353 -0.025549293 0.009473652 0.045174018 0.09038319 -0.06226606
0.050739855 0.03619516 -0.057201844 0.02115123 0.095103905 0.03129618 -0.019935414 0.10204716
-0.055063114 0.04283072 0.0014510751 -0.04968917 -0.05509726 0.10381879 -0.09859857 -0.05138997
0.051622346 0.032781586 -0.0559643 0.09407392 0.0023453534 -0.09912102 -0.07430172 0.04229021
-0.086980455 0.108016685 0.0005296245 0.031291083 -0.0690027 0.025215566 0.09213266 -0.10840242
-0.033960484 -0.029179439 -0.08433254 0.051931933 0.016990945 -0.023039721 0.016544536 0.01132831
-0.07277499 -0.0149028 0.10103634 -0.09172099 -0.00268583 0.03821522 -0.103302106 0.10951275
-0.07415056 0.06729579 0.019778416 -0.06380687 0.025279626 -0.074609846 -0.030193366 -0.010549605
0.0111627355 0.030014828 0.074374706 -0.04586903 0.08285153 -0.055391025 -0.060198594 0.091284886
-0.07485649 0.09506354 0.06869045 0.009955473 -0.111188725 -0.106768094 -0.09013662 -0.08377683
-0.078311525 0.079480916 0.0134436935 0.014429167 0.07132982 0.002577901 0.07953617 -0.077295765
0.032523513 -0.09321571 0.037203893 -0.098119326 -0.09919207 0.05610861 0.02799967 0.07872903
-0.007979259 -0.038545117 0.033172205 0.08859767 -0.04395961 0.031172186 -0.101621084 0.026615933

lstm.bias_ih_l0 f4 [320]
00000000: 408e f13c 904f dcbb f4a4 9d3d 20c1 d33d
00000010: 1886 2c3d 0456 bf3d 08a7 7fbc 7012 653d
00000020: f10b 61bd 8cbd 4a3d d0a6 093c 3074 22bc
00000030: 7af3 ad3d fbe8 9abd 9071 b93c bed9 8b3d
00000040: bcf5 463d f050 073d 6042 69bd b41b 633d
00000050: 9edb afbd 8a57 8e3d 46b5 923d a0a4 4cbc
00000060: 4288 aa3d 28d9 a23d f875 9d3c 5878 903d
00000070: 16c6 8dbd e0e3 7ebb f8b5 293d 981c ddbd
00000080: 2565 bebd 20b5 dabc c0e3 eb3a c575 73bd
00000090: 42d2 6bbd d801 7b3d 30c2 ce3c 6271 b43d
000000a0: d898 a53d c46b b63d f2ab d2bd ec3f bc3d
000000b0: b08e a93d d0eb 28bc 2c01 2f3d aa03 de3d
000000c0: 165f 11bd ac93 283d 066b 27bd 4654 e13d
000000d0: 9848 413d af47 77bd a0a7 a83d 1c73 193d
000000e0: a293 b8bd 602a 47bd 4c8d 413d da4c 98bd
000000f0: 3e56 b6bd e00a 443d af44 acbd 3ff3 bebd
00000100: 646a b03d fc00 c23d 98a8 363c 1898 fd3c
00000110: 824e e43d a507 e1bd bc24 a93d 9c10 80bc
00000120: 8464 ce3d 60ad 80bd 8c7d af3d aed7 d23d
00000130: 73dc dabd dade 82bd 8054 ab3c e29a 24bd
00000140: d4b1 d1bd d6d7 a7bd 8a51 acbd f47d 26bd
00000150: 8bdf bbbd 9ae3 903d 1808 903d 98d1 76bd
00000160: d480 cbbc e041 143d e8c4 3e3d a47f 663d
00000170: d0b0 ba3b b022 8f3b 04b6 8f3d ec67 063d
00000180: b2bf 72bd e410 d13d a83c 66bd 8142 c8bd
00000190: 6c23 ba3d a81f 5c3d d873 fa3c a0cd df3b
000001a0: ca2f 1cbd d849 d83d ac52 3f3d 94ca b2bd
000001b0: f06f 52bd c47d a4bd 02c0 c13d 5012 bf3c
000001c0: ac9b 4a3d 08aa aebd 2a7d 04bd 68ac 983d
000001d0: a472 693d 800c 70ba aad9 d23d 38b4 b23d
000001e0: c82a 8cbd de4a 9e3d 1817 653d 12dc 7cbd
000001f0: 6adb 82bd 78a6 f63c 70be 5c3c 10a1 d13c
00000200: a22a b03d 24da e03d 4ac4 b2bd a061 7fbd
00000210: 80b8 6abc 093d d8bd 5c36 2e3d a0f7 543b
00000220: 3f3f 5abd 01cc dcbd 903c c63b 90d0 a33c
00000230: 4020 e93c b882 d93c cb8b a3bd 30f6 8b3c
00000240: 646e bb3d d0f1 5fbc 6865 7fbc d32c b7bd
00000250: 4009 f6bc f849 97bd c877 d2bd ace6 d5bc
00000260: 163d 9e3d e0fa 6f3d f8ee 543d 38a3 01bc
00000270: 91fd 8fbd 8c2f 1abd f830 c5bd 808a 9eba
00000280: a0e8 b23d 002c a33c f070 8abd aa35 b23d
00000290: 7227 d93d 40af 733c 007f 16bd 6c9f 713d
000002a0: 642e c3bc ca34 e4bd b03c 4a3c f21b 963d
000002b0: a061 103d 5947 a2bd b0af d7bb c0e8 5a3d
000002c0: 6876 bebc 841a a7bd fe3a 39bd dcc6 9dbd
000002d0: ec6c 573d c0ed 4d3c a660 ad3d bc88 d03d
000002e0: 48b8 263c 1105 d7bd 879f d4bd 4037 c0bb
000002f0: dcd4 313d f052 803c 8418 a43d 4abb c73d
00000300: 46e4 e33d 40be 50bb a8f9 07bd 98e7 b0bd
00000310: 4408 2abd 4c08 00bd 90a6 cb3d 13fb cdbd
00000320: 98cd 20bd 98a3 ae3c 4a6e a2bd 0810 4c3d
00000330: c80c e63c 6054 b33c 9cf8 c93d a278 9b3d
00000340: 78f8 153d 9f35 bdbd 54de dcbc a02b 0a3d
00000350: 364e 22bd b023 1bbc ce87 8cbd 2631 83bd
00000360: 10bc 963c 04f1 3a3d 3945 a5bd 6a5d 9d3d
00000370: b074 5e3d 50c5 323d 4898 073c 4641 97bd
00000380: 6e41 e4bd 46eb c0bd 3afa 813d f868 ab3d
00000390: 1692 cd3d 8c98 1f3d 24d1 d33d a086 85bd
000003a0: b0ad b23b 5e0a dcbd a084 babc 1871 873d
000003b0: d05e ff3c aae7 59bd 9483 d53d c690 963d
000003c0: f807 41bd 4ce9 703d e02c 4e3d 40b4 113d
000003d0: 3080 15bd 3020 593d 0ba2 b6bd 0cc6 3c3d
000003e0: 7a94 91bd 8c0f 743d 68c5 8d3c 8c3c 0dbd
000003f0: d0ac 2b3c b296 20bd ea07 96bd c041 35bd
0.029486775 -0.006723352 0.07697478 0.1033957 0.04212007 0.09342578 -0.015603788 0.055925786
-0.05494303 0.049497172 0.008401588 -0.009915397 0.08493705 -0.07563969 0.022637159 0.068286404
0.048574194 0.033036172 -0.056948066 0.05544634 -0.085868105 0.069502905 0.071634814 -0.0124904215
0.0832677 0.079515755 0.019221291 0.07054204 -0.069225475 -0.0038893148 0.041433305 -0.107964694
-0.092966355 -0.026697695 0.0017996952 -0.059438486 -0.057573564 0.061281055 0.02523908 0.088106886
0.08085793 0.089072734 -0.10286702 0.0919188 0.082791686 -0.010310128 0.042725727 0.108405426
-0.03549107 0.041156456 -0.04087355 0.11002402 0.04718837 -0.060371097 0.08235097 0.037463292
-0.09012534 -0.048624396 0.04725389 -0.07436533 -0.08903168 0.047861934 -0.08411538 -0.09323739
0.086140424 0.09472844 0.011148594 0.030956313 0.11147787 -0.10987786 0.0825896 -0.01563292
0.100777656 -0.06283069 0.08568868 0.10295044 -0.106865786 -0.06390162 0.020914316 -0.04018677
-0.10238996 -0.08195464 -0.0841399 -0.040647462 -0.09173497 0.070746616 0.07032794 -0.060258478
-0.024841703 0.036195636 0.046574503 0.05627407 0.005697347 0.0043681487 0.070171386 0.03281395
-0.059264846 0.102083 -0.05621019 -0.097783096 0.090887874 0.053741127 0.030572817 0.0068299323
-0.038131513 0.105609596 0.0467097 -0.08730045 -0.051376283 -0.080318004 0.09460451 0.023324162
0.049464867 -0.08528525 -0.03234593 0.07454759 0.056994095 -0.0009157136 0.102954224 0.0872578
-0.068440974 0.077291235 0.055930227 -0.061733313 -0.06389506 0.030108675 0.013473138 0.025589496
0.086018816 0.10979107 -0.087288454 -0.06234896 -0.014326215 -0.105585165 0.04253231 0.0032496229
-0.053282972 -0.10781098 0.0060497 0.019996911 0.02845776 0.02655159 -0.07985648 0.017085165
0.09151915 -0.013668492 -0.015588142 -0.089440964 -0.030033708 -0.07387155 -0.10276753 -0.02611097
0.07726495 0.058588862 0.05198571 -0.00791245 -0.07030786 -0.037643 -0.09628481 -0.001209572
0.08735776 0.019918442 -0.06759822 0.08701642 0.10603227 0.014873326 -0.03674221 0.058989927
-0.023825832 -0.11142881 0.012343571 0.07329549 0.035249352 -0.07923765 -0.006582223 0.053444624
-0.02324982 -0.08159354 -0.045222275 -0.07703945 0.05259411 0.012568891 0.084657 0.1018233
0.010175772 -0.10499013 -0.1038199 -0.0058659613 0.04341589 0.015664548 0.080124885 0.097525194
0.11127524 -0.003185168 -0.033197075 -0.08637923 -0.04151179 -0.031257913 0.09943879 -0.10057654
-0.03925857 0.021318242 -0.07931192 0.049819976 0.028082266 0.02189082 0.098618716 0.07591368
0.03661391 -0.09238743 -0.026961483 0.03373301 -0.03962537 -0.009468958 -0.0686184 -0.06405859
0.018400222 0.045640007 -0.08069844 0.07683833 0.0543105 0.043645203 0.008276053 -0.07385497
-0.11145292 -0.09419875 0.06346555 0.083696306 0.10037629 0.03896384 0.10342625 -0.06519818
0.005452834 -0.10744165 -0.022768319 0.06613368 0.03117314 -0.053199448 0.10425487 0.07351832
-0.04712674 0.05881624 0.050335765 0.03557229 -0.036499202 0.053009212 -0.08917626 0.04608731
-0.07108398 0.05958514 0.017306045 -0.03448157 0.010478213 -0.039206214 -0.07325728 -0.044252157

lstm.bias_hh_l0 f4 [320]
00000000: d8c5 32bd a045 df3d 306b a7bb 060f adbd
00000010: e449 7dbd e827 7bbc aa32 e43d 16a4 c13d
00000020: c2cb bebd 4c7e 32bd 422d 2dbd 0e03 a83d
00000030: 94cf cabd fb6a 8dbd 41fe c2bd 7920 a1bd
00000040: 7610 bc3d b829 d63c 142d ad3d e806 043c
00000050: 6ac7 aa3d 5df0 a0bd cf64 76bd aa27 d53d
00000060: fca4 333d 281a 233c 18a0 de3d 88b5 673d
00000070: b0e7 d33c 762a 24bd f8f0 cabc f8c2 74bc
00000080: 6a71 49bd 4047 8b3d 84d3 493d 5497 a33d
00000090: 04bd b7bd 6e8b 30bd 4889 343d e8e0 613d
000000a0: dc40 1e3d d2c4 c9bd 1948 dcbd 108d a23c
000000b0: ddba d5bd 0286 c73d 6f36 cebd 985c ef3c
000000c0: b01a 973d 88df 2f3d 73ab 56bd d825 613d
000000d0: 4024 b9ba 50af f0bb d488 5abd f3d7 c4bd
000000e0: 6ccd efbc 3a2c dd3d 92d6 93bd 08af 3a3d
000000f0: cbd8 a4bd e01c ee3c 71d2 95bd 14d3 283d
00000100: 1995 8ebd 20e5 8a3c 202c bfbc 2c93 be3d
00000110: 56cf ba3d ec0a c0bc a0d7 5a3c 28e5 813c
00000120: ecc1 2b3d 2834 143d 1c96 b93d 9aab 1fbd
00000130: 0ef6 ab3d 2fec 64bd 478f 6ebd e441 aabd
00000140: e8f8 0cbd c46e c6bc ceeb e0bd e4ad e03d
00000150: b0a2 bdbb 7045 493d 4056 a63b 744f a9bd
00000160: 6078 033d e483 5c3d 7872 9b3d 9cee 453d
00000170: 446d 8cbc a03f b4bb 8c75 cabc a0a1 333d
00000180: 1832 27bc e078 d13d 8001 d4bd 0657 d6bd
00000190: 561a 8dbd 467a d93d fecd e43d e085 113d
000001a0: d03a 9b3c 1284 05bd 38a6 083c a89a 8a3d
000001b0: 0c0b 2e3d c896 9fbc c2d0 bd3d 8660 a6bd
000001c0: 62e7 8a3d 6845 0b3d 0cb8 58bd 38f6 573c
000001d0: 7ad4 c83d 8038 23bc 205f 9b3d 5cdb 6ebd
000001e0: 60f6 5d3c cc42 e0bc 6026 6c3d 8358 c2bd
000001f0: 3cfb bf3d 98a5 4fbc 294e d3bd d0a5 d73c
00000200: e41b 753d b9df 9bbd f5ac 80bd e03d cd3c
00000210: 3861 0e3d 60f2 d5bd fc39 36bd 6c3a 8c3d
00000220: 5e2f c6bd f240 acbd 74d0 bcbd 782a de3d
00000230: 9643 dd3d 2819 8b3d b079 a1bd 288a 263c
00000240: 5cad 89bd e0ba f13c 80e2 de3c 2076 90bd
00000250: f8aa 173d ae3f b83d 80cb 723d 06fd 73bd
00000260: 2abf b83d 10f8 c5bc 70a7 fabc c8c4 c4bd
00000270: 3853 0a3d e456 273d 4fc3 c4bd 4cf9 ccbc
00000280: aebc d5bd badc 11bd 70f3 b53d d8f2 693d
00000290: 6502 58bd bace 20bd 18c4 7f3d 2037 ce3c
000002a0: 1efb a53d 9c1b 85bd 04df a83d c845 ed3c
000002b0: 4c83 9c3d 28e1 8b3d 28c2 63bd de9c 70bd
000002c0: 68ca 5dbd 64c3 eabc b41f ddbd 10c5 803c
000002d0: e0d0 6d3c 880a 073d 4cd9 cd3d 0804 133c
000002e0: 98d3 203d 62a3 dcbd 7a15 d23d f086 bfbc
000002f0: 807c e3ba 56ea dbbd e0f7 e9bb b6fc 99bd
00000300: d3d0 aebd 3ef4 d83d d6a3 05bd 1049 3f3d
00000310: 9846 4a3d d880 323d 6e4a 7bbd c3b6 67bd
00000320: c0a1 893b b845 983c 5685 ccbd 9499 4a3d
00000330: 3e20 a0bd d40d 833d a88c cebd d87b a0bd
00000340: 5e16 05bd 9e89 a73d 543a 1cbd 545d 41bd
00000350: 78cd 343d 20da 713c 90fb df3c debd a6bd
00000360: 0c64 afbc e375 58bd 709c c5bd a06c 293d
00000370: 30ac 293d 5810 283d 70a8 1d3d 72c7 1bbd
00000380: 8010 07bb 42bb b73d 3cae 0c3d a8ae 24bc
00000390: 3afe bd3d af1f e2bd ece9 80bd 007e 973d
000003a0: a490 b1bd 20be e4bb 12ca 883d ba4c c13d
000003b0: 78eb 173d 7835 1a3d 327b c23d 6e4e e43d
000003c0: 8a01 41bd 001e 44ba a3e9 5cbd c894 9bbd
000003d0: b8d3 ad3c e6b5 dbbd f807 32bd c0ea c63b
000003e0: 0bcd d3bd b569 8cbd 0473 5f3d fefd 9dbd
000003f0: 3c33 97bc 76c1 873d ca66 28bd 4c35 8b3d
-0.04364571 0.10901952 -0.0051092133 -0.08450131 -0.061838046 -0.015329339 0.11142476 0.09455125
-0.093162075 -0.043577477 -0.04227949 0.08203708 -0.09902874 -0.069051705 -0.09521151 -0.07867522
0.09182827 0.02614294 0.084558636 0.008058287 0.083388165 -0.07858346 -0.060154732 0.10407956
0.043858513 0.009954967 0.10870379 0.056569606 0.025867313 -0.040079556 -0.024773106 -0.014939062
-0.049180426 0.06800699 0.049273983 0.07987848 -0.08971599 -0.04310172 0.044076234 0.055146128
0.038636073 -0.098519936 -0.10755939 0.019842654 -0.10436032 0.09742357 -0.10068976 0.029218957
0.07378137 0.042937785 -0.0524096 0.05496773 -0.0014125183 -0.0073451176 -0.053353146 -0.096115015
-0.029272757 0.10799451 -0.072186604 0.04557708 -0.080491625 0.029066503 -0.07315529 0.041216925
-0.06962032 0.016954958 -0.02333647 0.093054146 0.091215774 -0.023442708 0.013357073 0.01585634
0.041932985 0.036182553 0.09061834 -0.03898201 0.083965406 -0.055889305 -0.05824211 -0.08313349
-0.034417063 -0.024222739 -0.10982476 0.10970667 -0.005787216 0.049138486 0.0050762 -0.082671076
0.03209722 0.05383672 0.075901926 0.04832326 -0.017141946 -0.0055007488 -0.024714254 0.04385531
-0.010204814 0.10228133 -0.103518486 -0.10465817 -0.06889789 0.10619025 0.111721024 0.035528064
0.018948942 -0.032596655 0.008340411 0.067677796 0.042491004 -0.019481078 0.09268333 -0.08123879
0.06782414 0.034001738 -0.052909896 0.013181262 0.09806152 -0.009962201 0.07586503 -0.058314666
0.01354751 -0.027375601 0.057653785 -0.094895385 0.09374091 -0.012673758 -0.10317642 0.026324183
0.05984105 -0.07611031 -0.06282989 0.025053918 0.034760684 -0.1044662 -0.044488892 0.068470806
-0.09677003 -0.08410825 -0.09219447 0.10847944 0.108039066 0.067919075 -0.07884538 0.010164775
-0.06722519 0.029508054 0.027207613 -0.070537806 0.037028283 0.08996521 0.059276104 -0.059567474
0.09020837 -0.024166137 -0.030597419 -0.096078455 0.03377077 0.04085435 -0.09607565 -0.025021218
-0.104363784 -0.035610892 0.08884323 0.05711636 -0.05273666 -0.03925965 0.06244287 0.02517277
0.081045374 -0.06499407 0.08245662 0.028963938 0.076422304 0.068300545 -0.055605084 -0.05874335
-0.054148108 -0.028657623 -0.107970625 0.015718967 0.014515132 0.032969028 0.10051212 0.008973129
0.03926429 -0.1077335 0.102580026 -0.023379773 -0.001735583 -0.107380554 -0.0071401447 -0.07518904
-0.08535924 0.105934605 -0.03262695 0.046700537 0.04938373 0.043579906 -0.06135028 -0.05657078
0.0042001903 0.018587932 -0.09986369 0.04946287 -0.0781865 0.06399122 -0.10085422 -0.07836121
-0.032492034 0.08180545 -0.038141564 -0.047208145 0.044141263 0.014761478 0.027341634 -0.08141683
-0.02141001 -0.0528468 -0.09648979 0.04136336 0.041423976 0.04103121 0.038490713 -0.038032003
-0.00206092 0.089712635 0.03434585 -0.010051407 0.092770055 -0.110411994 -0.06294617 0.073970795
-0.08670166 -0.0069806725 0.06679167 0.094384626 0.037089795 0.037648648 0.09496154 0.11147772
-0.04712061 -0.0007481277 -0.05393375 -0.07596737 0.02121912 -0.10728054 -0.04346463 0.006070465
-0.10341843 -0.068560995 0.054553047 -0.07714461 -0.018457048 0.066286966 -0.041113652 0.06797275

lstm.weight_ih_l1 f4 [320, 80]
00000000: db49 dbbd 48cf 7bbc cc5b 61bd 1e97 c3bd
00000010: 43c8 dbbd d8f4 c1bd d0b8 c83b b0d0 04bc
00000020: 00e0 403c e832 de3c 305e c83d c08d 0e3c
00000030: d824 323d f099 ff3b 2054 cf3c d0c8 b5bb
00000040: 9053 1bbc c0bc 55bb 5d2c a0bd 10a0 383d
00000050: 0a37 a33d 060d be3d d03d 203d 78b3 353d
00000060: 48bb f9bc f80a c2bd f0cb e13d 1807 533d
00000070: 688e f73c d8de c83d e8b6 a33d 1010 8c3d
00000080: 8e3b bc3d 3c21 b7bc 644d aabd 2ad5 00bd
00000090: 76bd 8b3d 2c2c 8bbd 1eb0 4dbd d846 73bc
000000a0: e0e1 46bc 0448 953d b4ab c63d 07ac 68bd
000000b0: 5c57 653d 14ce 693d e89d ce3c 3848 07bc
000000c0: b058 903c c435 713d 34d7 2ebd ca55 973d
000000d0: 3c90 97bd 387a 583d 5ce4 093d 6098 1d3c
000000e0: 4959 53bd 22f7 8abd 00b0 5838 b07d bf3d
000000f0: dd71 dcbd 419f a7bd 8c0c 02bd e80c aa3c
00000100: 24bc a7bd 2042 38bc dcd6 a9bc 88c6 8b3d
00000110: 9837 b03d f8ff 053d b480 6f3d 2875 7dbd
00000120: 58b2 033d 6704 e2bd e8ba df3c 0063 d9bd
00000130: bc24 85bd 9e0a b33d 789c cf3c 8e88 c63d
00000140: 0664 dd3d 2424 dabc d859 ce3d c074 1bbc
00000150: 8874 42bd 10c8 3f3c eecb abbd c860 c1bd
00000160: 6870 e1bc 2a7f d7bd d0fa 8c3d 462a b53d
00000170: fac0 a1bd daa7 99bd 9e61 38bd 0692 c53d
00000180: a0da d3bb 52a7 b0bd ec45 d3bc 9af6 bebd
00000190: 703f 6b3d 4a46 cb3d 4e51 db3d 3302 60bd
000001a0: 9096 933c a62e d23d b32a ccbd 6012 43bb
000001b0: 48f1 353d 28ca 5c3d 3bbc 9abd be7b 84bd
000001c0: 6402 333d c0a3 973d fa46 c4bd 3c39 8abd
000001d0: 1019 e63b 800c a8bb 0820 17bd eba5 50bd
000001e0: 40d8 d53d e413 03bd 2ace a23d 6f58 4cbd
000001f0: 88e0 f13c 0de5 78bd a484 ddbc c092 91bd
00000200: 4818 a43c 2249 babd a275 91bd fa2f a43d
00000210: 10a6 b13d 48af abbc 30d1 c53c 6072 8f3d
00000220: 08f4 cbbd 3478 bcbd 98df b73d d08c a33c
00000230: 74ce 333d 4e5d 48bd 2017 753d 58e5 37bc
00000240: 4c40 c73d b0a7 373d 44b1 8fbd 5cf1 40bd
00000250: 16aa 8cbd ecb4 bd3d c645 96bd 80ec 503c
00000260: 8002 3e3d a0d8 1b3b 5001 e7bb 40b5 1cbb
00000270: e2a1 a2bd acbf 09bd 7201 a73d 64fd 343d
00000280: 5445 d73d 09f4 aabd 7087 a73b fc95 763d
00000290: 9a11 24bd 064c 97bd 80e9 e3bc 1073 843d
000002a0: db1c d4bd 178a d8bd ee66 7dbd c952 53bd
000002b0: 2049 703b c0db ae3c 1154 7ebd 68c4 2fbd
000002c0: 1868 5c3d c012 df3c 00e4 593c e4bd 623d
000002d0: 5450 3b3d 188c bc3d 74bc aa3d 7b93 81bd
000002e0: 3c2a 3c3d 4e2b c0bd a82a 313c 2218 bdbd
000002f0: 68e9 063c 9c13 7d3d b6b4 9b3d 1da9 88bd
00000300: 2801 233c 28dc b13c 201c cc3c 3cc1 583d
00000310: 0487 7c3d 5093 b0bb 9c53 0d3d be18 3cbd
00000320: 7601 a33d a3d3 cbbd 8884 e43c 9c17 613d
00000330: e00e b93c a0c1 cabb 78a3 c23d d83d ebbc
00000340: 38d3 173c 2582 cebd 63bf b4bd c868 71bd
00000350: c8d3 323d 0a52 93bd 461c dabd feba 0bbd
00000360: 00fd 6e3b 7e12 0cbd c08f 7ebb 80d3 0dbb
00000370: 40fc 2f3c f04f 033c d4fd afbd c0e1 0dbb
00000380: 00ed 7c3c fb40 b4bd f324 85bd d4ee 7ebd
00000390: 8cfd ccbc 1658 c33d fea8 83bd 1971 d7bd
000003a0: 4c7e b63d 049d 4fbd 5804 263c e412 4f3d
000003b0: c059 2ebb 001d d3bc d610 d23d 00ab 153b
000003c0: f249 97bd c89b 243d b44e 0c3d 2eb3 a4bd
000003d0: 3031 c33d 3835 8abc 700e 863d a867 53bc
000003e0: 8c09 593d 68c7 423d 7e11 e3bd 04cb fcbc
000003f0: 29dd a0bd 9a20 8d3d d0fa 313d e6d5 2bbd
-0.10707446 -0.015369244 -0.055019185 -0.09550308 -0.10731556 -0.09470528 0.006125547 -0.008106396
0.011772156 0.027123883 0.0978359 0.008700788 0.04349217 0.007800333 0.025308669 -0.0055476204
-0.009480372 -0.0032613724 -0.078209616 0.045074522 0.07969482 0.09279828 0.03912145 0.044360608
-0.03048481 -0.094747484 0.11025226 0.051520437 0.030219272 0.09808129 0.07993871 0.06839001
0.09191047 -0.022354715 -0.08315542 -0.03145329 0.06823246 -0.067955345 -0.050216787 -0.014848433
-0.012138814 0.072891265 0.097007185 -0.056804683 0.055991516 0.057081297 0.02522178 -0.008256964
0.017620414 0.058889166 -0.042685702 0.0738941 -0.074005574 0.052850932 0.033665046 0.009618849
-0.05159882 -0.06785418 5.1662326e-05 0.09350145 -0.10763905 -0.08184672 -0.031750247 0.020758107
-0.08190182 -0.011246234 -0.020732336 0.06824976 0.08604354 0.032714814 0.05847235 -0.061879307
0.032152504 -0.11035996 0.027310804 -0.10614586 -0.06501147 0.087422594 0.025343165 0.096940145
0.108100936 -0.026628561 0.1007573 -0.009488285 -0.047474414 0.011705413 -0.08388506 -0.09442288
-0.02751942 -0.105223015 0.06883776 0.08845954 -0.078981355 -0.07502718 -0.04501497 0.096469924
-0.006465271 -0.08625664 -0.025790177 -0.09324379 0.057433546 0.09925516 0.10708867 -0.054689597
0.01801613 0.10262804 -0.09969082 -0.002976559 0.044419557 0.05390373 -0.07555433 -0.064689144
0.04370345 0.0740428 -0.0958385 -0.06749198 0.0070220307 -0.0051284432 -0.03689578 -0.05093948
0.10441637 -0.03200139 0.07949479 -0.049889024 0.02952601 -0.060765315 -0.027040787 -0.071080685
0.02003111 -0.0909598 -0.07102515 0.08016963 0.08674252 -0.020957604 0.0241476 0.07004237
-0.09958655 -0.092026144 0.08978194 0.019964606 0.04389806 -0.048917107 0.059836507 -0.011224113
0.097290605 0.044837654 -0.070162326 -0.04710518 -0.06868379 0.09263024 -0.07337527 0.0127516985
0.046389103 0.0023780242 -0.007049717 -0.0023911744 -0.07941033 -0.03363006 0.081545725 0.044186965
0.1051127 -0.08347327 0.005112581 0.06020163 -0.04005585 -0.07387547 -0.027821302 0.06467259
-0.10357066 -0.105732135 -0.06186574 -0.051592622 0.003666468 0.02134502 -0.06209189 -0.042911917
0.05381021 0.02723062 0.013298988 0.055356875 0.045730904 0.09206408 0.08336726 -0.06326958
0.045938715 -0.0938326 0.010813393 -0.092331186 0.008234359 0.06178628 0.07602827 -0.06672881
0.009949006 0.021711424 0.024915755 0.052918658 0.0616522 -0.005388655 0.034503564 -0.045922033
0.07959263 -0.09952476 0.027895227 0.054954156 0.0225901 -0.0061876327 0.095038354 -0.028716013
0.009266667 -0.10083417 -0.088255666 -0.058937818 0.043659 -0.07193382 -0.10649924 -0.034113877
0.0036466718 -0.034197323 -0.0038843006 -0.0021640956 0.010741293 0.008014664 -0.08593336 -0.002164945
0.015437365 -0.088014565 -0.06501188 -0.062239483 -0.025023244 0.095382854 -0.06428717 -0.105196185
0.08910808 -0.05068685 0.010132872 0.050555125 -0.0026603788 -0.025770664 0.102571175 0.002283752
-0.07387151 0.040187627 0.034254745 -0.08041988 0.09530866 -0.01687108 0.065457225 -0.012903132
0.05298762 0.04755345 -0.11087321 -0.030858524 -0.07854683 0.06890984 0.043452084 -0.041952036

lstm.weight_hh_l1 f4 [320, 80]
00000000: fc39 4b3d c47e a2bd 56bf 10bd 1845 a83d
00000010: d04a c03b 1cf5 7b3d 921c e4bd 680a 493d
00000020: 020e c4bd 30a5 9cbd 5422 80bc 447c d23d
00000030: c049 0f3c 9865 7b3d de72 3abd 1083 cfbb
00000040: 6b40 9fbd a925 cdbd 4492 053d b020 64bd
00000050: b847 063d 72fd 93bd 6a39 8fbd 609a df3c
00000060: 6ec9 96bd b8f0 05bd 7e02 8e3d a0e5 943d
00000070: d607 62bd e8e8 973c ec9b 64bd 1895 8cbc
00000080: c0fe 9b3d 5e8d d63d ec6f 49bd 0f25 b5bd
00000090: e3a7 bfbd 8855 91bd 5a77 c03d ce25 c43d
000000a0: 40b2 dbbd 52a8 aa3d 7a5e 9c3d 90c7 de3d
000000b0: 009c 8abc fcd5 cc3d 4854 013c 48dd d73d
000000c0: ee1e acbd 72d6 33bd ddde b5bd 405d 0e3d
000000d0: 0c6b 833d d8d5 693d 5897 0abc 007e 1dba
000000e0: 68d3 523d b24a d03d e0b1 e43c b85d 59bc
000000f0: 0036 f5b9 d848 fc3c f6b0 3abd 8c32 343d
00000100: edaa 62bd c037 efba 585b 54bc c0ea 353d
00000110: 5eb3 9c3d fcc7 453d d211 8bbd 98be f03c
00000120: c023 963c 1634 0abd 6857 663d 30f7 783d
00000130: 856b b3bd acde 313d b71d 6ebd 64dd 783d
00000140: 6874 bebc e87e 273d fa3a 8cbd dde5 87bd
00000150: 6859 453d a208 a43d 1eee 8c3d c4b0 df3d
00000160: f60c b73d 8439 373d 0adf 40bd c063 92bc
00000170: 50d0 ce3d a1be 7fbd a8ec e3bd 7849 3f3d
00000180: 40f0 09bc 900b e3bb 2274 91bd c006 62bb
00000190: 74d3 143d a4a8 ffbc 54dd 83bd aa2f c83d
000001a0: 12cd 2ebd 7040 c53c 98c5 86bd deef 973d
000001b0: 58af 5bbd 8e2d b1bd 090f cdbd 804b 1dbc
000001c0: 42b9 35bd 82b5 a53d 1cc1 003d c864 21bd
000001d0: aea8 a6bd 9a28 cf3d f83c a9bc 849e 313d
000001e0: 5070 cabc 1cd5 d5bd 10a1 26bd 6837 dbbc
000001f0: d8ac 79bd 2dee b3bd 0c27 a6bc eadc c4bd
00000200: 22a2 12bd c08d 28bc f0fa 803c bc51 793d
00000210: 709d c2bc a847 d63c 188b b03c 88e5 a43c
00000220: 9e5f 25bd 1439 46bd 40b2 3bbc 1243 47bd
00000230: b4fd 81bd 48e9 b6bc 3e1e b23d 4870 2b3d
00000240: 8c27 b33d d930 c1bd 1587 bdbd a1a5 4bbd
00000250: 9014 493d 3031 96bd d427 5cbd 748d a13d
00000260: e0d9 4d3b 680d 223d d6ae cf3d b047 e33c
00000270: a486 173d d0ca 343c ac18 6b3d 20e7 7dbb
00000280: e818 5b3d a0c2 ef3c 56ab 8a3d e8d2 3e3d
00000290: 4c9c e2bd 38a3 613d 3a06 d83d b0cb de3c
000002a0: 941a ba3d 7c58 743d f055 90bc 68ac ad3d
000002b0: 6f8d b9bd 0080 90bd a0fb ac3d 007c 7fb9
000002c0: 764a 913d 3c44 8b3d 6ceb 16bd 1073 aa3d
000002d0: dadc 1fbd c4f7 35bd be53 bc3d 3862 973d
000002e0: b002 2c3d 6cfc 193d 107f 8c3c 823d 48bd
000002f0: 90b9 9f3d 746a b5bd d2a0 ce3d bc5e 6abd
00000300: 1200 46bd 8cbd 47bd 3859 333d 36a1 a7bd
00000310: 40ae d4bb 58d7 893c 1ce4 073d 266b 8abd
00000320: 7a04 893d 6044 febb bc44 32bd 6295 883d
00000330: 9cfd ae3d ea35 a9bd 8c26 213d fcd3 433d
00000340: 1c30 cc3d 3008 3a3d d213 02bd aabb acbd
00000350: 0000 ff3b bca3 1f3d 3081 b53d 1c87 89bd
00000360: a2d9 61bd fc61 adbd 15d9 a9bd d0ec b0bd
00000370: 8cfb ebbc e0c9 c2bd d803 e1bd a4d4 cc3d
00000380: 323a 4fbd e248 c93d 0a27 c93d 6c0c 3fbd
00000390: 9848 e9bc 906d 503d b030 d23c 8e36 a73d
000003a0: 0626 8b3d 2c19 713d e0c0 9b3d e9e8 8bbd
000003b0: 026e bfbd f645 98bd aa02 9bbd 914a acbd
000003c0: d053 c93c f842 b73c 20ae 89bb ef80 4cbd
000003d0: c89c 08bc 409e a83d 74a2 30bd 08da 11bc
000003e0: c4d7 703d 7ccf a4bd 1534 73bd 7ad1 cdbd
000003f0: c0e2 37bd 8c3f 8e3d 047a a83d 54cb 393d
0.049615845 -0.07934335 -0.035338722 0.082163036 0.0058682933 0.06151305 -0.11138262 0.04908219
-0.09572984 -0.076486945 -0.015641369 0.10277608 0.008745611 0.061376184 -0.045519702 -0.0063327625
-0.077759586 -0.10016949 0.032610193 -0.055695236 0.03278324 -0.07226075 -0.06993373 0.027295291
-0.073626384 -0.03270027 0.06934069 0.0727036 -0.055183254 0.018543676 -0.05581276 -0.017160937
0.07616949 0.104761824 -0.049179003 -0.08844959 -0.09358194 -0.07096392 0.093977645 0.09577523
-0.10727358 0.08332886 0.076352075 0.10877907 -0.01692009 0.10001752 0.007893629 0.10540253
-0.08404337 -0.043905683 -0.088803984 0.0347569 0.06416902 0.057088703 -0.008458935 -0.000600785
0.051471144 0.10170497 0.027916849 -0.013266973 -0.00046770275 0.030796453 -0.04557892 0.043993518
-0.05533879 -0.0018250868 -0.012961231 0.04441333 0.07651399 0.048286423 -0.06790508 0.029387757
0.018327594 -0.03374108 0.0562357 0.06078261 -0.08760742 0.043425247 -0.058133807 0.06075801
-0.023248866 0.04089251 -0.068471864 -0.0663564 0.048180968 0.08009459 0.06881355 0.10922387
0.08938019 0.044732586 -0.047087707 -0.01786983 0.10098326 -0.062437657 -0.11129123 0.046700925
-0.0084190965 -0.0069288686 -0.07102229 -0.0034488887 0.03633447 -0.031208344 -0.06438699 0.09774716
-0.04267604 0.024078578 -0.06580657 0.07418798 -0.053634018 -0.08651267 -0.10012633 -0.00960052
-0.04436613 0.080912605 0.031434163 -0.039402753 -0.08137642 0.10115166 -0.020658955 0.043364063
-0.024711758 -0.10441038 -0.040680945 -0.026759818 -0.060955852 -0.08785663 -0.02028229 -0.096124485
-0.035799153 -0.010287702 0.015744656 0.060868964 -0.023756713 0.026157215 0.0215507 0.02012898
-0.04037439 -0.048394278 -0.011456072 -0.048647948 -0.06347218 -0.022328034 0.086971745 0.041855127
0.08747777 -0.09433145 -0.092542805 -0.049718503 0.049091876 -0.073336005 -0.05374892 0.07888308
0.0031410381 0.039563566 0.10140769 0.027744144 0.036993638 0.011034682 0.057396576 -0.0038742498
0.05349055 0.02926761 0.06770961 0.046587855 -0.110649675 0.0550873 0.105480626 0.027196735
0.090871006 0.059654698 -0.017619103 0.084801495 -0.090601794 -0.07055664 0.08446431 -0.00024364889
0.070942804 0.06800124 -0.03684561 0.08322728 -0.03902898 -0.04442574 0.0919566 0.073917806
0.04199475 0.037594244 0.017150432 -0.048886783 0.07799065 -0.08858195 0.10089268 -0.057219252
-0.04833991 -0.04876475 0.043786258 -0.081850454 -0.006490499 0.016826317 0.033176526 -0.06758718
0.06690307 -0.007759616 -0.04352258 0.066691175 0.08544466 -0.082622364 0.0393434 0.047809586
0.09970114 0.045417964 -0.031757183 -0.084342316 0.0077819824 0.03897451 0.08862531 -0.06715223
-0.05513919 -0.08465955 -0.08293358 -0.086389184 -0.02880647 -0.09511161 -0.10987061 0.100014955
-0.05059261 0.098283544 0.09821899 -0.046642706 -0.028476998 0.050885737 0.025657982 0.08164702
0.06794362 0.058861896 0.07605147 -0.068315335 -0.09347154 -0.07435219 -0.075688675 -0.0841266
0.024576098 0.0223708 -0.0042016655 -0.04992765 -0.008338161 0.08233309 -0.043123677 -0.00890208
0.05879952 -0.08047387 -0.05937584 -0.1004972 -0.04489398 0.06945714 0.08226398 0.045359924

lstm.bias_ih_l1 f4 [320]
00000000: c566 e3bd b839 81bd 24e2 833d 5c98 0abd
00000010: 9060 b53c 2aed 08bd e0db a23d e079 613b
00000020: 788c 4f3d d241 b6bd 727b 28bd a09f 02bd
00000030: 90ab d73c 91d3 e1bd ac0f d5bc 0e4c 9abd
00000040: 8c4c d4bc cce1 983d fdc6 d9bd 50f3 043c
00000050: 4004 a73c 72c4 9f3d 4ed0 a5bd 4810 3b3d
00000060: 8bf2 c7bd 82bf 943d ee42 ca3d ccdf d4bd
00000070: 8c85 223d 307f ec3b 78b7 cf3d 9e23 91bd
00000080: 8191 acbd d806 dd3c 5eac 2dbd 5808 423d
00000090: d0bf debd ca79 933d c094 073c 38d0 09bd
000000a0: f4ef c33d 533e cabd 69c6 d2bd 7613 15bd
000000b0: 14d5 333d 829c dbbd acf2 a9bd 362b d23d
000000c0: 077d 6fbd b629 db3d 5294 36bd 3620 a2bd
000000d0: e09f 833d 5ad4 27bd 4a1a 18bd f246 1dbd
000000e0: 6088 c2bb e60d 973d bec7 ad3d eaa7 a7bd
000000f0: b83f e13d 20fd 84bd 589e 60bc a8ca 2b3d
00000100: 8260 d6bd c0b4 9bbd 12cc 983d 3ab7 e33d
00000110: a025 41bd 64f9 d2bc c832 b43d 22d4 da3d
00000120: 3030 0f3c 6c71 d9bd 2003 0d3d 5eb8 2cbd
00000130: 7086 d03d 0a4b 8b3d 6ca3 a7bd 209e 703b
00000140: eee4 e0bd aee5 0dbd 8268 cb3d d3d3 bebd
00000150: 80f5 173a fea6 47bd 9346 74bd 6ca5 753d
00000160: f256 33bd 24bc e13d d8f5 813d f69d d5bd
00000170: a0d7 6a3b 5add d3bd 70b9 383d 9025 6bbd
00000180: 5424 803d 04d8 afbc 1498 d03d 9092 493d
00000190: 009a aeba 14c9 cd3d 4e53 c33d d603 9d3d
000001a0: 0497 6cbd 1edc a93d 52b4 923d 24cc b7bd
000001b0: 4c8b 073d 40fb 583b a845 5c3d 60c8 4c3b
000001c0: 7cea 303d f031 ffbc 20b4 6e3d dc3e 08bd
000001d0: 760e 24bd 83da d9bd eed3 98bd e846 c3bc
000001e0: 12b6 e03d 4837 febc dbfa 97bd 892f 90bd
000001f0: cce6 ab3d 9867 e83c 4493 92bc a43f 92bd
00000200: 103f bbbb 5e1f 41bd 1aee 75bd 9a7d a33d
00000210: e358 97bd 9a52 853d 74c7 443d 0df8 8ebd
00000220: a888 e4bd 7a74 abbd c479 373d 8a4d d7bd
00000230: 2ae6 02bd 22eb bb3d b6b6 a73d fc7e d83d
00000240: ecb2 45bd 1040 143d 9f63 dcbd 573e 96bd
00000250: f075 2e3c 008d 1d3d 0568 debd 68a5 533d
00000260: 4cd4 f7bc dd34 61bd cc0e 0e3d 4085 acbc
00000270: 44d0 0dbd 602e 2b3d 923b 59bd 5c88 473d
00000280: 70b4 a43d 494c 79bd b0ed a13b f851 a33c
00000290: 1884 963d 8861 9cbc 0007 4c3b b09d debc
000002a0: cc5c 00bd 4677 afbd 2439 bdbd e0ee 933d
000002b0: 00fc a0bd 1803 e33d 4012 8bbb 4c9a bdbd
000002c0: 0829 c7bd d0d4 df3c 100f e93c 18d6 a53c
000002d0: 0e1f b7bd 5077 c0bd 915c cfbd 0ef3 97bd
000002e0: a7e3 91bd 3d82 d3bd 90db ca3d 9a6c 31bd
000002f0: 50ee d73c 780f 09bd 04e0 853d 4ea0 933d
00000300: 9cbf 4c3d 6a78 11bd 4c33 b03d a82e 9dbc
00000310: 894a d9bd 10b0 db3c c2c4 91bd 4cff da3d
00000320: 3277 65bd 38e1 afbc c45f fabc 90d2 a33b
00000330: 2e9b 90bd 28b1 d13c d0c2 013c e0c6 76bd
00000340: b4bb cf3d d035 81bb 108e e63c 40d8 e1bb
00000350: 4fc6 aabd 60c8 4fbc b658 be3d 71bd b6bd
00000360: e023 10bb 8c06 8ebc 62e3 8f3d 40f9 513d
00000370: e08d 18bb 50fc 89bd c822 393d 92e2 d33d
00000380: 9758 5ebd a0a5 76bd 6241 85bd a8b7 433d
00000390: d47a 933d 70b0 a9bb 4000 133c 5839 dfbd
000003a0: 20ab ccbb a8a6 bcbc bad5 823d 5c69 e8bc
000003b0: 9c2d 9c3d d0f0 363d c2d0 acbd b0eb 16bd
000003c0: e028 dcbc 9ae6 05bd f01f 573d d4a2 c3bc
000003d0: d04a cb3c 3a7d d83d 425a 1dbd 00f8 cc3d
000003e0: 307a b73b cedf e43d b8cd a33c ea69 9a3d
000003f0: 572b 58bd 74f1 353d f9ab 58bd a427 98bc
-0.11103586 -0.06309837 0.06439617 -0.033836707 0.022140771 -0.033429302 0.07952094 0.0034404919
0.05067107 -0.08899273 -0.04113335 -0.03189051 0.026326925 -0.11026681 -0.02600845 -0.075340375
-0.025915407 0.07464942 -0.10633657 0.008114651 0.020387769 0.07801141 -0.080963716 0.045669824
-0.09763058 0.0726309 0.09876047 -0.10394248 0.03967814 0.0072173104 0.10142416 -0.070868716
-0.0842619 0.026980802 -0.04240071 0.04737124 -0.10876429 0.07200964 0.008275211 -0.03364584
0.09567252 -0.09875169 -0.1029175 -0.036395513 0.04390438 -0.10723211 -0.08298239 0.10262148
-0.058468845 0.10701315 -0.044575043 -0.079163 0.06426978 -0.040974 -0.037134446 -0.038397737
-0.0059366673 0.07375698 0.084853634 -0.08186324 0.109984815 -0.06493592 -0.013709627 0.041941315
-0.10467626 -0.07602835 0.07460798 0.11118932 -0.047155023 -0.025753684 0.08798748 0.106849924
0.008739516 -0.10617337 0.03442681 -0.042168014 0.10181892 0.06801422 -0.08185467 0.0036715344
-0.10981165 -0.034642868 0.09932043 -0.09317746 0.0005796775 -0.04874324 -0.059637617 0.05997221
-0.04378409 0.11022213 0.06345719 -0.10430519 0.003583409 -0.10344954 0.045098722 -0.05740887
0.06256929 -0.021465309 0.101852566 0.04921204 -0.0013321042 0.10048118 0.095373735 0.07666747
-0.057761207 0.08293937 0.071632996 -0.089744836 0.03309183 0.003310874 0.053777367 0.0031247362
0.04319237 -0.031151742 0.05827725 -0.033263072 -0.040052854 -0.10637381 -0.074622974 -0.023837522
0.10972227 -0.03103222 -0.07420894 -0.070403166 0.083936304 0.02836971 -0.017892487 -0.07141045
-0.0057143047 -0.047149055 -0.060041524 0.07982941 -0.07390001 0.065098956 0.048041776 -0.06980906
-0.111588776 -0.083718255 0.04479386 -0.10512836 -0.031957783 0.091757074 0.08189146 0.10571095
-0.048266336 0.036193907 -0.10761189 -0.07336109 0.010648236 0.038464546 -0.10859684 0.051671416
-0.030252598 -0.054982055 0.03468208 -0.021059632 -0.034622446 0.041792274 -0.053035326 0.048714027
0.08042228 -0.060863767 0.0049416646 0.019936547 0.07349414 -0.019089475 0.0031132102 -0.0271748
-0.031338498 -0.085676715 -0.09239414 0.07223296 -0.07860565 0.110845745 -0.004244119 -0.092579454
-0.09724623 0.027323157 0.028449565 0.02024369 -0.0894147 -0.09397757 -0.101250775 -0.07419406
-0.07123499 -0.10327575 0.099051595 -0.04331646 0.026358753 -0.033462018 0.06536868 0.0720831
0.04998742 -0.035515226 0.08603534 -0.019187286 -0.106099196 0.026817352 -0.07117607 0.10693225
-0.056021877 -0.021469697 -0.030563243 0.0049994662 -0.07060848 0.02559717 0.007919982 -0.060248256
0.101432234 -0.0039431825 0.028143913 -0.006892234 -0.083386056 -0.0126820505 0.09294264 -0.08922852
-0.002199404 -0.017337106 0.07025792 0.051263094 -0.0023277923 -0.06737578 0.045199186 0.10345949
-0.054283705 -0.060216546 -0.065066114 0.04778257 0.07201162 -0.0051785037 0.008972228 -0.10899609
-0.0062459856 -0.023028687 0.06388421 -0.028370552 0.07625887 0.04466325 -0.08438255 -0.036845863
-0.02687496 -0.032690622 0.052520692 -0.023881353 0.024815947 0.1057076 -0.038416155 0.1000824
0.0055992827 0.111755 0.019995555 0.07539733 -0.052775707 0.04441972 -0.05289838 -0.01857359
