modelGRU.pth (torch, 120711 bytes, 9 tensors)

gru.weight_ih_l0 f4 [150, 42]
0	0x3dd736b1	0.105084784
1	0x3d76a5fe	0.060216896
2	0x3dc996f4	0.09843245
3	0x3e3a1c5c	0.1817488
4	0xbe22fbb1	-0.15916325
5	0xbde85467	-0.113442235
6	0x3dc2b809	0.09507758
7	0xbc78485b	-0.01515397
8	0xbe4b660b	-0.19863145
9	0xbda8edfb	-0.08248516
10	0x3e46c06e	0.19409344
11	0xbdd55163	-0.10415914
12	0xbe022720	-0.12710238
13	0xbdfa398e	-0.12218009
14	0xbd344254	-0.044008568
15	0x3de3a8ba	0.111161664
16	0x3d3d32de	0.04619109
17	0xbd16725f	-0.036730167
18	0xbe2b4af5	-0.16727813
19	0x3da60224	0.08105877
20	0xbd0f3c52	-0.034969635
21	0x3c3820ae	0.01123826
22	0xbd3094ad	-0.04311054
23	0xbdad6345	-0.084662
24	0x3c81be50	0.015837818
25	0x3dd06485	0.101754226
26	0x3d4e90ce	0.050431065
27	0x3d8f44d2	0.06995548
28	0x3d9791a7	0.07400828
29	0x3d4a5902	0.04940129
30	0xbe02f176	-0.12787423
31	0xbb748165	-0.003730857
32	0x3d8d0383	0.068854354
33	0xbe158262	-0.14600518
34	0xbaff2da4	-0.0019468558
35	0x3e221089	0.1582662
36	0x3ce22e3a	0.027609933
37	0xbe0ac195	-0.13550408
38	0x3e6b5e13	0.22985105
39	0xbc5f92c6	-0.013645833
40	0xbdb95f44	-0.090513736
41	0xbd18d49a	-0.037312128
42	0xbd31a846	-0.04337337
43	0x3d7b6e5d	0.061384548
44	0xbd233257	-0.03984293
45	0xbdee8e61	-0.1164825
46	0x3e0897ee	0.13339207
47	0x3cfbf76e	0.030757632
48	0x3e325a48	0.17417252
49	0xbe49f0f7	-0.19720827
50	0xbd68b9eb	-0.05681793
51	0xbd48bc22	-0.049007542
52	0xbe6f6c5e	-0.23381183
53	0x3e806f70	0.2508502
54	0x3e1de44f	0.15419124
55	0x3e019e60	0.12658072
56	0x3e289c92	0.16465977
57	0x3dec0332	0.11524047
58	0xbc4e1628	-0.012578525
59	0xbd005e7a	-0.0313401
60	0x3e1d0acf	0.15336154
61	0x3e113f73	0.1418436
62	0x3e26b34a	0.16279331
63	0xbe707ad2	-0.23484352
64	0xbd694ccd	-0.05695801
65	0x3d7b1050	0.061294854
66	0xbe8e4b78	-0.27791953
67	0xbdb9476e	-0.09046827
68	0xbe695ceb	-0.22789352
69	0xbda1c7e2	-0.07899453
70	0xbd7b8878	-0.061409444
71	0x3c9d6765	0.019214341
72	0xbd897d59	-0.06713361
73	0x3c90b3ee	0.017663922
74	0x3e5329c9	0.20621409
75	0xbdbef7cf	-0.093246095
76	0x3d8cce7d	0.06875322
77	0x3df0d424	0.117592126
78	0xbb857a8c	-0.0040734466
79	0x3e12312a	0.14276567
80	0xbe83fc4e	-0.2577843
81	0x3d04bad1	0.032404725
82	0x3d821a84	0.06352714
83	0x3e568178	0.20947826
84	0xbd87db28	-0.066335976
85	0x3dedc192	0.11609186
86	0x3e3a7f98	0.18212736
87	0x3dcfbb5a	0.10143156
88	0x3e10c2b3	0.14136772
89	0xbd07aae4	-0.03312196
90	0x3d0a49f8	0.03376195
91	0x3d1211ea	0.035661615
92	0x3dbd99aa	0.09257825
93	0x3c8cbfc2	0.017181281
94	0xbdf8eece	-0.121549234
95	0x3d30822b	0.043092888
96	0x3dc6b334	0.09702149
97	0x3c6a3239	0.014294201
98	0xbd356725	-0.04428782
99	0xbd00f20b	-0.03148083
100	0x3d2d2e4f	0.04228049
101	0xbd7677ec	-0.06017296
102	0x3e258bba	0.16166583
103	0xbb0320c4	-0.0020008544
104	0x3d03c306	0.03216841
105	0x3e9b8b0e	0.30379528
106	0x3e80c55e	0.2515058
107	0x3c908080	0.017639399
108	0xbe8ef094	-0.27917922
109	0xbdc815fc	-0.09769818
110	0xbe292bcd	-0.16520615
111	0xbdfe665a	-0.12421866
112	0x3d9d6b16	0.07686441
113	0x3d9ff4c5	0.07810358
114	0x3d7c3c76	0.061581098
115	0xbdd7ce7a	-0.10537429
116	0x3e35268c	0.17690486
117	0xbe6f60f6	-0.23376831
118	0xbe1d69aa	-0.15372339
119	0x3ea91554	0.33024085
120	0x3dc3e11b	0.0956442
121	0xbd301714	-0.04299076
122	0xbe22f706	-0.15914544
123	0xbccbc9ea	-0.024876554
124	0x3c16a2f8	0.009194128
125	0x3d786a78	0.06064841
126	0xbe0edadb	-0.13950674
127	0xbe0d73f2	-0.13813761
128	0xbd485bfe	-0.048915856
129	0xbd50abf8	-0.050945252
130	0x3d30848f	0.043095168
131	0xbde76adb	-0.11299678
132	0x3d83d6ad	0.064374305
133	0xbc1946b9	-0.0093552405
134	0xbe365452	-0.17805603
135	0xbe207c49	-0.15672411
136	0xbd586c6c	-0.052837774
137	0x3dfc3303	0.12314417
138	0xbdad6dff	-0.08468246
139	0xbe28a250	-0.16468167
140	0xbdf3bcd0	-0.119012475
141	0xbdb23a74	-0.08702555
142	0xbd808f52	-0.06277336
143	0xbdf4e806	-0.119583175
144	0xbe004762	-0.1252723
145	0xbdb2b9ed	-0.08726869
146	0x3dad61a9	0.08465893
147	0xbca06f85	-0.019584427
148	0x3d868036	0.06567423
149	0x3e499a9c	0.19687885
150	0xbb69608d	-0.0035610527
151	0x3d064b2e	0.03278654
152	0xbdc259a0	-0.09489751
153	0xbda1c49e	-0.0789883
154	0x3ce56128	0.02800043
155	0xbe381181	-0.17975427
156	0xbc6fa63a	-0.014627034
157	0x3d6d690c	0.05796151
158	0x3d9351ec	0.0719336
159	0xbe59d811	-0.21273829
160	0xbdcdd0db	-0.10049602
161	0x3e1e51d0	0.15460896
162	0x3d9105fe	0.07081221
163	0xbe5d2110	-0.21594644
164	0xbdb94d7a	-0.090479806
165	0xbcba0aa3	-0.02271015
166	0x3da4086c	0.08009419
167	0xbd4ef0e7	-0.05052271
168	0x3dbfcbc4	0.09365037
169	0x3e14d1f5	0.14533217
170	0x3df38bdb	0.1189191
171	0xbe49e9ae	-0.19718048
172	0xbe554397	-0.20826565
173	0xbe51f1bd	-0.20502372
174	0xbd85f12c	-0.065401405
175	0x3e47ad8b	0.19499795
176	0x3c691776	0.014226785
177	0x3dbd5301	0.09244347
178	0x3d4f4927	0.050606873
179	0xbe42467f	-0.18972205
180	0xbd092278	-0.033480138
181	0x3ccdcfcf	0.025123505
182	0xbe4f165d	-0.20223375
183	0xbe39ba12	-0.18137386
184	0xbe936d4a	-0.28794318
185	0xbd968521	-0.07349611
186	0xbdaec140	-0.08532953
187	0xbe8e32cd	-0.27773133
188	0xbd2a8ff4	-0.04164119
189	0x3daac446	0.083382174
190	0xbd9fba47	-0.077992015
191	0x3dd5bce6	0.1043642
192	0x3e03c67a	0.12868682
193	0xbc9f6771	-0.019458504
194	0x3da3c55d	0.079966284
195	0x3d872318	0.065984905
196	0xbd6656cd	-0.056235123
197	0xbdfc911d	-0.12332366
198	0xbe69507c	-0.22784609
199	0xbe7d37a8	-0.24728262
200	0xbd66e1dc	-0.05636774
201	0x3df54c22	0.11977412
202	0x3dac2046	0.08404593
203	0xbd79dbfa	-0.0610008
204	0x3daeb77b	0.0853109
205	0x3e3027aa	0.1720263
206	0x3e0c9ebb	0.13732426
207	0xbe28551b	-0.16438715
208	0xbd69303d	-0.05693077
209	0xbe0f629d	-0.14002462
210	0x3e087e10	0.13329339
211	0xbd893b93	-0.06700816
212	0xbdce25bd	-0.10065792
213	0xbe0180a7	-0.12646733
214	0xbe63faf0	-0.22263694
215	0xbed471f8	-0.414932
216	0xbe3bdcdf	-0.18345974
217	0x3e0b0a29	0.13578095
218	0xbd668516	-0.056279264
219	0xbde8620e	-0.113468274
220	0x3e88c484	0.2671243
221	0xbe312d51	-0.17302443
222	0xbed132bf	-0.4085903
223	0xbe82a817	-0.25518867
224	0xbe9e36bc	-0.30901134
225	0xbeda5f8c	-0.4265102
226	0xbeba8217	-0.36427376
227	0xbec14fe6	-0.3775627
228	0xbece06a2	-0.40239435
229	0xbe1f5de8	-0.15563166
230	0xbebe31fc	-0.3714751
231	0x3d8d9600	0.06913376
232	0x3e9424e9	0.2893441
233	0x3e192cb6	0.14958462
234	0x3e13ff5c	0.1445288
235	0xbdc4afb5	-0.09603826
236	0xbd236a8a	-0.039896525
237	0xbd1b102e	-0.037857227
238	0xbecc1244	-0.39857686
239	0xbe891c15	-0.26779237
240	0xbea83dea	-0.32859737
241	0xbe27310b	-0.16327302
242	0xbebfe334	-0.3747803
243	0xbe5d3a72	-0.21604326
244	0xbcd1c478	-0.025606379
245	0x3dfadbcc	0.12248954
246	0xbda30de3	-0.07961633
247	0xbe33f25f	-0.17572926
248	0x3d28fd98	0.04125747
249	0xbe1cd012	-0.15313748
250	0xbe7dc91b	-0.24783747
251	0xbe55d818	-0.20883214
252	0xbe9b6961	-0.30353835
253	0xbc6d1052	-0.014469223
254	0x3bec1e29	0.007205744
255	0x3e701bae	0.23448059

gru.weight_hh_l0 f4 [150, 50]
0	0xbdb510b5	-0.08841077
1	0x3c27c637	0.010240129
2	0xbd48aac9	-0.048991
3	0xbd158994	-0.036508158
4	0x3dfa9292	0.12234987
5	0x3d9a95a2	0.075480714
6	0xbe15923c	-0.14606565
7	0xbd663c0a	-0.0562096
8	0x3e179cba	0.1480588
9	0xbd1732f8	-0.036913842
10	0xbc804d20	-0.015661776
11	0xbd7aa278	-0.0611901
12	0x3e3454e1	0.17610504
13	0x3db836fd	0.08994863
14	0xbd9f1e37	-0.07769435
15	0x3e673df5	0.22582228
16	0x3e56eaa5	0.20987947
17	0x3e153739	0.14571847
18	0xbc787971	-0.015165673
19	0x3db42af2	0.08797254
20	0xbd9ffddc	-0.07812092
21	0x3e3ac1e1	0.18238021
22	0x3d36052e	0.044438533
23	0xbcacc2a6	-0.02108891
24	0x3e05a86a	0.13052526
25	0x3db11b2d	0.086477615
26	0xbe486569	-0.19569935
27	0xbc2375c8	-0.009976812
28	0xbdb7f6cd	-0.089826204
29	0xbe282bbf	-0.16422938
30	0xbac5aef6	-0.001508205
31	0xbd804c2d	-0.062645294
32	0xbc481ae6	-0.012213444
33	0xbd2e2c5c	-0.042522773
34	0xbdedd4cf	-0.11612856
35	0x3d8964e6	0.06708698
36	0xbda70411	-0.081550725
37	0x3dc16e24	0.09444836
38	0xbe03158c	-0.12801188
39	0xbe1be11a	-0.15222588
40	0x3d80c134	0.062868506
41	0x3dedd1cf	0.116122834
42	0xbda2984c	-0.079392046
43	0x3e5d4c6b	0.21611182
44	0xbe1bcd8e	-0.15215132
45	0xbdae160c	-0.08500299
46	0x3e3190a8	0.17340338
47	0xbdc0f30c	-0.094213575
48	0xbb281656	-0.002564808
49	0x3e35d633	0.17757492
50	0x3e41001c	0.18847698
51	0x3c0ad058	0.008472525
52	0x3dda3575	0.10654727
53	0x3e5c0596	0.21486506
54	0xbcaae10b	-0.020859262
55	0x3e171a7b	0.14756195
56	0x3d0daa0e	0.034586005
57	0xbdef9c53	-0.11699738
58	0xbcc9f9d5	-0.024655262
59	0x3e0ecda3	0.13945632
60	0x3dc2114d	0.09475956
61	0x3d965f68	0.07342416
62	0x3d83ca9f	0.06435131
63	0x3dc4fb2b	0.09618219
64	0x3c8d8c6d	0.017278874
65	0x3caa211c	0.02076774
66	0xbd2473c6	-0.040149473
67	0xbc6297cf	-0.013830139
68	0xbdc64a39	-0.096821256
69	0xbd367d87	-0.044553306
70	0x3d8c55ad	0.06852279
71	0xbe074bec	-0.13212556
72	0xbe1fba19	-0.15598334
73	0xbdd10093	-0.10205188
74	0x3c27ff96	0.0102538075
75	0xbd39407d	-0.045227516
76	0xbdbc08c8	-0.091813624
77	0xbc18890e	-0.00931002
78	0x3d0fb178	0.035081357
79	0x3cfa1f43	0.030532485
80	0xbe06b48f	-0.13154815
81	0x3dc6922f	0.09695851
82	0x3da45bd6	0.08025329
83	0xbd67c712	-0.056586333
84	0x3ca92fb2	0.020652626
85	0xbd4423a8	-0.047885567
86	0x3e8d0805	0.2754518
87	0x3d5594e8	0.05214396
88	0x3dea85fa	0.11451335
89	0x3c6a8e99	0.0143162245
90	0x3e3cdc1f	0.18443345
91	0xbcdfeb93	-0.02733401
92	0x3c340436	0.010987332
93	0xbe05d215	-0.13068421
94	0xbce61856	-0.028087776
95	0xbc056583	-0.008141878
96	0xbe9ec6e1	-0.31011108
97	0x3d36f50d	0.044667292
98	0xbc0eb35a	-0.008709753
99	0xbdbd4acb	-0.09242781
100	0xbd912a2a	-0.0708812
101	0x3d4e65a7	0.050389912
102	0x3d5930ff	0.053025242
103	0xbdbcf5f0	-0.09226596
104	0xbda264cb	-0.07929381
105	0x3d2f85cf	0.04285222
106	0xbdc35390	-0.09537423
107	0xbea90ced	-0.33017674
108	0x3e49cec5	0.19707783
109	0xbd896d5f	-0.06710314
110	0x3de0195c	0.10942337
111	0xbe395138	-0.18097389
112	0x3e4def28	0.20110762
113	0x3e64aab6	0.22330746
114	0x3d1fd197	0.03901824
115	0xbda8cf6f	-0.0824269
116	0xbcaae075	-0.020858983
117	0xbd9d2a6b	-0.07674106
118	0x3d917619	0.071026035
119	0x3e2b499a	0.16727296
120	0x3db1c286	0.086796805
121	0x3df044bd	0.11731861
122	0x3e2dba6c	0.16965646
123	0xbc8cc710	-0.017184764
124	0xbcb924cc	-0.022600554
125	0x3de42089	0.11139018
126	0x3d75bf30	0.059996784
127	0xbe3301cb	-0.17481153
128	0xbd150d2a	-0.036389507
129	0xbda95046	-0.08267264
130	0x3e1a8e45	0.15093334
131	0xbddb3ced	-0.1070498
132	0x3c9b4e7b	0.01895832
133	0x3dc036a8	0.09385425
134	0x3c5343f7	0.012894622
135	0xbe168e5a	-0.1470274
136	0x3de5376c	0.111922115
137	0x3d6b01de	0.057374828
138	0x3e0c2ea6	0.1368967
139	0xbd16a7f6	-0.036781274
140	0xbd5c9331	-0.05385131
141	0x3e501584	0.20320708
142	0x3d1c5f6b	0.038176935
143	0x3e32bb05	0.17454155
144	0x3c4859cf	0.012228443
145	0xbb07ea2c	-0.0020738943
146	0x3dde814d	0.10864506
147	0x3dd3ec0b	0.10347756
148	0xbe59b786	-0.21261415
149	0x3e00884f	0.12551998
150	0xbd968980	-0.07350445
151	0xbe81ed3d	-0.2537631
152	0xbb617242	-0.0034400378
153	0xbd224078	-0.039612263
154	0xbe4e1d66	-0.20128402
155	0x3e24dcdf	0.1609988
156	0xbd9a4883	-0.07533362
157	0xbce38955	-0.027775446
158	0x3ce7c884	0.028293855
159	0x3d9a4cd7	0.07534187
160	0x3c813468	0.01577206
161	0x3d44da8e	0.048059992
162	0xbd6bd922	-0.05758012
163	0xbe2137d2	-0.1574395
164	0xbcf47a54	-0.029843487
165	0x3dd267bf	0.10273694
166	0xbd8c729f	-0.068578
167	0xbded8547	-0.11597686
168	0xbd55ae98	-0.05216846
169	0xbdcfd0e1	-0.10147262
170	0xbe018db9	-0.12651719
171	0xbe3ebe53	-0.1862729
172	0x3e81150d	0.25211373
173	0x3dcadef4	0.09905806
174	0xbe4f6024	-0.20251518
175	0xbdcc679d	-0.099807
176	0xbdee8c62	-0.1164787
177	0xbd1219fc	-0.035669312
178	0x3d1fd277	0.039019074
179	0x3b3cdbe1	0.0028817581
180	0xbd917a8d	-0.07103453
181	0xbdfa1517	-0.12211054
182	0x3daf9c62	0.085747495
183	0xbc70c554	-0.014695484
184	0xbd9e97c6	-0.07743792
185	0x3cba5e5c	0.022750072
186	0x3e0591bc	0.13043875
187	0x3e6b5330	0.22980952
188	0x3d34a500	0.04410267
189	0xbcd75fd1	-0.026290806
190	0xbce57507	-0.028009905
191	0x3e86d9af	0.26337954
192	0xbd05307e	-0.03251695
193	0x3e101ce9	0.14073528
194	0x3e09ff3f	0.13476275
195	0x3e647ebb	0.22313969
196	0x3dd45249	0.10367257
197	0x3dba805b	0.09106513
198	0xbdda477f	-0.10658168
199	0x3e69a835	0.22818072
200	0xbd8cf442	-0.06882526
201	0xbcd0a44e	-0.025468972
202	0xbd28afbb	-0.041183215
203	0xbd50c4ed	-0.050969053
204	0xbdd6edac	-0.10494551
205	0xbc83b5a8	-0.016077831
206	0x3d952fea	0.072845295
207	0x3da5c9aa	0.08095105
208	0x3cb14803	0.021640783
209	0x3d3386f2	0.043829866
210	0xbda76132	-0.081728354
211	0x3db0dd10	0.08635914
212	0xbddfdf93	-0.10931315
213	0x3e6781a6	0.2260805
214	0x3e7a915b	0.24469511
215	0x3e03aadc	0.12858146
216	0x3e5f847b	0.21827881
217	0xbe30428b	-0.17212884
218	0x3d29f4d2	0.041493244
219	0xbd9690bf	-0.07351827
220	0xbea42c78	-0.32065177
221	0x3e0fc592	0.14040211
222	0xbb7701fc	-0.0037690392
223	0xbe2cd702	-0.16878894
224	0x3dd4b716	0.10386483
225	0x3e54e99e	0.20792243
226	0x3e81bcf2	0.25339466
227	0x3e4753e0	0.1946559
228	0x3c12d250	0.008961275
229	0xbe5d0a9e	-0.21586081
230	0x3d98f264	0.07468107
231	0x3b506c90	0.003180299
232	0xbdf7111c	-0.1206381
233	0xbe182dab	-0.14861171
234	0x3e188f84	0.14898497
235	0x3cb77c54	0.022398151
236	0xbdf02b70	-0.11727035
237	0xbe2c2d8f	-0.16814254
238	0x3d2ecf8b	0.042678397
239	0x3e0be6d3	0.13662271
240	0xbd507ec1	-0.050902132
241	0x3dec745d	0.11545632
242	0xbe06627b	-0.13123505
243	0x3e4c58d5	0.19955762
244	0xbd381da2	-0.044950135
245	0xbdf925a5	-0.12165383
246	0x3d3d6050	0.04623443
247	0x3dba5d62	0.090998426
248	0x3cce2ddb	0.02516835
249	0x3e491713	0.19637708
250	0xbeac25b2	-0.3362251
251	0xbe53ca39	-0.2068261
252	0xbe375ca4	-0.17906433
253	0xbebc141a	-0.36734086
254	0x3ccb20b1	0.024795862
255	0x3dbb58c3	0.09147789

gru.bias_ih_l0 f4 [150]
0	0x3b963358	0.0045837574
1	0x3e738424	0.23780876
2	0xbd2d0d0e	-0.042248778
3	0xbde35bda	-0.11101504
4	0xbe4f9f0c	-0.20275515
5	0xbd37b11c	-0.04484664
6	0xbc468da4	-0.012118731
7	0xbdd33efa	-0.10314746
8	0x3e096b1f	0.1341977
9	0xbe23df32	-0.16003111
10	0x3e01238a	0.12611213
11	0x3e056ac8	0.13029015
12	0xbb6dca3c	-0.003628387
13	0xbd61782f	-0.055046257
14	0x3d5ab292	0.053392954
15	0xbe6649aa	-0.22489038
16	0x3dbe087a	0.092789605
17	0x3cb5aae7	0.02217622
18	0xbd131012	-0.035903998
19	0xbd9083e1	-0.07056404
20	0x3e0b6f88	0.13616765
21	0x3da12b32	0.07869567
22	0xbe2d2269	-0.16907658
23	0x3c9f904f	0.019477991
24	0xbc5df446	-0.013547009
25	0x3e2e5858	0.17025888
26	0x3ddaba79	0.10680098
27	0x3df47852	0.11937012
28	0xba1cd5b0	-0.00059827697
29	0x3e034d9c	0.12822574
30	0x3e2bdce7	0.16783486
31	0x3e2862ce	0.16443941
32	0x3e16986b	0.1470658
33	0x3e31ce9a	0.17363968
34	0x3db69511	0.08915151
35	0xbde3682a	-0.11103852
36	0xbd311e97	-0.043242063
37	0x3cc7c850	0.024387509
38	0xbdb7a9a7	-0.089679055
39	0xbd0345c0	-0.03204894
40	0x3d8e94a2	0.06961943
41	0x3d869f15	0.06573311
42	0x3e2a8a16	0.16654238
43	0x3db0feda	0.08642359
44	0xbc2fa898	-0.010721348
45	0x3e56f77f	0.2099285
46	0xbd9296dc	-0.071576804
47	0xbd35a3a7	-0.044345524
48	0x3e16a121	0.14709903
49	0x3d8d7fd7	0.06909149
50	0xbde506d0	-0.1118294
51	0x3d7a88e3	0.0611657
52	0xbdc6a06f	-0.09698569
53	0xba3d64f0	-0.00072248187
54	0x3e534c1e	0.20634505
55	0xbe2a1595	-0.16609795
56	0x3e123a0c	0.14279956
57	0x3d805573	0.06266298
58	0x3e8242a7	0.25441477
59	0x3e88bb97	0.2670562
60	0xbd960541	-0.07325221
61	0x3e2d029e	0.1689553
62	0x3d960253	0.07324662
63	0x3e4d8e99	0.20073928
64	0x3d2815b6	0.04103633
65	0xbe93fdff	-0.2890472
66	0x3df46562	0.119334
67	0x3e039c43	0.12852578
68	0x3d84aa8f	0.06477844
69	0xbe2f8cbb	-0.17143528
70	0xbdb23314	-0.08701149
71	0x3d4920c9	0.049103532
72	0xbd8ae0dc	-0.0678117
73	0x3d8fe56f	0.07026183
74	0x3e621f39	0.22082223
75	0x3e0d4996	0.13797602
76	0xbdc07934	-0.09398118
77	0x3e2c85b1	0.16847874
78	0xbd2979d3	-0.041375946
79	0x3ddaa92a	0.10676797
80	0xbe432358	-0.19056451
81	0x3d433005	0.047653217
82	0x3e003ca5	0.12523134
83	0x3d7e900e	0.0621491
84	0x3c8122f2	0.015763734
85	0xbd9e67b1	-0.07734621
86	0xbc71918a	-0.014744172
87	0xbe3f1bdb	-0.1866297
88	0x3e4dcc0e	0.20097372
89	0x3baf4b1a	0.005349529
90	0xbd79ae9d	-0.06095754
91	0x3d9aa01b	0.07550069
92	0x3dae5ad0	0.08513415
93	0xbd6bda45	-0.057581205
94	0xbc599f15	-0.013282557
95	0x3e450781	0.19241144
96	0x3e5c881c	0.21536297
97	0x3d9ee7c3	0.07759049
98	0xbd417ab8	-0.047236174
99	0xbdab49b5	-0.08363668
100	0xbd90d662	-0.0707214
101	0x3de79eb9	0.11309571
102	0x3dc90c45	0.09816793
103	0x3dc86d86	0.09786515
104	0x3df88dc4	0.12136415
105	0xbdf4a6fa	-0.11945911
106	0x3de4bbe1	0.111686476
107	0x3cc07f6f	0.023498265
108	0xbdb03ac8	-0.08604962
109	0xbca54068	-0.020172313
110	0x3d90ad70	0.070643306
111	0xbde52ecc	-0.111905664
112	0x3d0bf7aa	0.034171738
113	0xbdd23d7a	-0.10265632
114	0xbd1a0fd8	-0.037612766
115	0xbd27f615	-0.041006166
116	0xbc262ecd	-0.010142994
117	0xbc98db60	-0.018659294
118	0x3c8b1387	0.016977085
119	0x3ddcf075	0.10788051
120	0x3e0686b9	0.1313733
121	0xbb8a478a	-0.004219954
122	0x3cf0437f	0.02932906
123	0xbd9909b0	-0.07472551
124	0xbe0c442d	-0.13697882
125	0x3d767402	0.060169227
126	0xbd55c27b	-0.052187424
127	0xbda49f49	-0.08038194
128	0x3d2e2807	0.04251864
129	0x3e4c7622	0.19966939
130	0x3db2df5c	0.08734009
131	0xbcc0cc5c	-0.023534946
132	0x3d80a4ef	0.062814586
133	0x3d682830	0.05667895
134	0xbe20b973	-0.15695743
135	0xbca31431	-0.019907089
136	0xbc08f27f	-0.008358597
137	0x3d4e09ef	0.050302442
138	0xbd3df488	-0.04637578
139	0x3e117cc6	0.14207754
140	0x3d92eea2	0.07174422
141	0xbd5b03ef	-0.05347055
142	0x3d694abb	0.056956034
143	0xbd510c5e	-0.051037185
144	0xbe450715	-0.19240983
145	0xbdba2085	-0.09088234
146	0xbdc2cc3e	-0.09511612
147	0xbe0baaf0	-0.13639426
148	0x3dc82348	0.09772354
149	0x3da8d831	0.0824436

gru.bias_hh_l0 f4 [150]
0	0x3de5d952	0.11223091
1	0x3dc4ca47	0.09608894
2	0x3e1ffde7	0.156242
3	0xbdc49974	-0.09599581
4	0xbe3add4a	-0.18248478
5	0x3e329bbb	0.17442219
6	0x3c867e5b	0.016417673
7	0xbe3055fe	-0.17220303
8	0x3df30d40	0.118677616
9	0xbde94b44	-0.11391309
10	0x3c27aabd	0.010233578
11	0x3e8163e3	0.2527152
12	0xbe282894	-0.1642173
13	0x3d558b19	0.052134607
14	0x3d923149	0.07138307
15	0xbe29c82e	-0.16580269
16	0x3def8eff	0.11697196
17	0xbca5d519	-0.020243214
18	0x3ca692ac	0.02033361
19	0x3d9e0731	0.077162154
20	0x3e61ee2f	0.22063516
21	0xbca494a6	-0.020090412
22	0x3cafbb7a	0.0214517
23	0xbdd1c2b8	-0.10242218
24	0xbcd19d74	-0.025587775
25	0x3e3241d5	0.17407925
26	0x3e432822	0.19058278
27	0x3dff2782	0.124587074
28	0x3dc15b4c	0.094412416
29	0xbcbeda5c	-0.023297481
30	0x3e44ca0a	0.19217697
31	0x3ae5f159	0.0017543241
32	0x3e2439fd	0.16037746
33	0xbd2b53f2	-0.041828103
34	0x3de8588d	0.11345015
35	0xbdcbfd1c	-0.09960386
36	0x3d602336	0.05472108
37	0x3e305df0	0.17223334
38	0xbdc44ba9	-0.095847435
39	0xbd719cae	-0.058987312
40	0x3e2d3a85	0.16916855
41	0x3e15a259	0.14612712
42	0x3e4a060c	0.19728869
43	0x3dc99071	0.09842003
44	0x3d0f3545	0.03496291
45	0x3e38464a	0.17995563
46	0x3d88e117	0.066835575
47	0x3df04e11	0.1173364
48	0x3bd87822	0.006606118
49	0x3e1fa091	0.15588595
50	0x3aa65d27	0.0012692556
51	0xbd58d876	-0.05294081
52	0xbe275a2e	-0.16342995
53	0x3de9cb8c	0.114157766
54	0x3e8b13cb	0.27163538
55	0x3c756066	0.014976596
56	0x3dc5be53	0.09655442
57	0xbd4e01ba	-0.050294615
58	0x3e136857	0.14395271
59	0x3e136a25	0.1439596
60	0x3dbb9f62	0.09161259
61	0x3dba394d	0.090929605
62	0xbc275e8d	-0.010215414
63	0x3e092254	0.13392001
64	0xbd9ce0c7	-0.076600604
65	0xbe9a5c95	-0.3014876
66	0x3e8e95bc	0.27848613
67	0x3c088775	0.008333077
68	0x3e5ed3b3	0.21760444
69	0xbe5bd801	-0.21469118
70	0x3e166b61	0.146894
71	0xbde9ca55	-0.11415545
72	0xbe27ab60	-0.16373968
73	0x3cf66d35	0.03008137
74	0x3d972b70	0.07381332
75	0x3c71046c	0.014710527
76	0x3d52558e	0.051351123
77	0xbd0b72f3	-0.03404517
78	0x3d80bee2	0.06286408
79	0x3e05961d	0.13045545
80	0xbe74a8b8	-0.23892486
81	0x3d198a92	0.037485667
82	0xbd6d4634	-0.05792828
83	0xbced7483	-0.028986221
84	0xbdb9ef80	-0.09078884
85	0x3e290a97	0.16507946
86	0x3d87cea6	0.06631212
87	0xbe2d6784	-0.1693402
88	0x3e0974e7	0.13423501
89	0x3bf073f2	0.0073380405
90	0xbe111ae0	-0.14170408
91	0x3d0c97b2	0.034324355
92	0x3e2001be	0.15625665
93	0xbdc4987e	-0.09599398
94	0x3e4dfdf8	0.20116413
95	0x3d2f5899	0.042809103
96	0x3ceb56fa	0.028727997
97	0xbd927c5a	-0.071526244
98	0xbe1d4a45	-0.15360363
99	0xbd0ce00d	-0.03439336
100	0x3d66b130	0.056321323
101	0x3db43879	0.08799834
102	0x3e0e83bc	0.1391744
103	0x3c900787	0.017581714
104	0x3cab0cce	0.02088013
105	0xbced502d	-0.028968895
106	0xbd6697ce	-0.056297116
107	0xbca8c4a5	-0.02060158
108	0xbe0371fb	-0.12836449
109	0xbd06dc6a	-0.032925047
110	0xbdce8c75	-0.10085384
111	0xbdfd4ba5	-0.12367944
112	0xbc413f59	-0.011794888
113	0xbd405d58	-0.04696402
114	0xbd81a24a	-0.06329782
115	0x3d44a7d2	0.04801161
116	0xbd895954	-0.06706491
117	0xbc85ac68	-0.016317561
118	0xbe482b9b	-0.19547884
119	0xbbc39bff	-0.005969524
120	0x3e0587dc	0.13040107
121	0x3c36f642	0.011167111
122	0xbd8a3f61	-0.0675037
123	0xbde5f2bc	-0.112279385
124	0xbd971cec	-0.07378563
125	0x3c32054b	0.01086552
126	0x3e0f929e	0.14020774
127	0x3d88fcc9	0.0668884
128	0x3e0c3ad2	0.13694313
129	0xbd7e378a	-0.062064685
130	0xbccad7ad	-0.024761045
131	0x3babc764	0.005242275
132	0x3c640d33	0.013919163
133	0x3db82cf2	0.08992948
134	0xbd494476	-0.049137555
135	0xbda9c76e	-0.08289991
136	0xbbb9375a	-0.0056523504
137	0x3bf0a636	0.0073440326
138	0xbe14146c	-0.14460915
139	0xbc916f2e	-0.01775321
140	0xba9c7a5a	-0.0011938319
141	0xbcb7c03d	-0.022430534
142	0x3dc4a226	0.0960124
143	0x3e1bf2b8	0.15229309
144	0xbc1e3b36	-0.009657672
145	0xba319887	-0.00067747425
146	0xbdf7c9b2	-0.12099017
147	0x3dc30992	0.0952331
148	0xbdccec18	-0.10005969
149	0xbcfecf2b	-0.031104645

gru.weight_ih_l1 f4 [150, 50]
0	0x3e1b5fed	0.15173312
1	0xbd9e78fc	-0.0773792
2	0x3e15f536	0.14644322
3	0x3e909415	0.28237978
4	0xbdb60abd	-0.08888767
5	0x3df44438	0.11927074
6	0xbd84175c	-0.06449768
7	0xbd664d05	-0.056225795
8	0xbd265c54	-0.040615395
9	0xbd7087cc	-0.058723256
10	0xbd65f5b8	-0.05614254
11	0xbe0c4a0a	-0.13700119
12	0x3df83571	0.12119568
13	0xbe592f70	-0.21209502
14	0xbe4c496c	-0.19949883
15	0xbdb17a3d	-0.08665893
16	0xbe356ea3	-0.17717986
17	0xbe2185b6	-0.15773663
18	0x3e0a865a	0.13527814
19	0x3e7201fb	0.23633568
20	0x3de38a89	0.11110408
21	0xbddd2f02	-0.10799982
22	0x3da8b455	0.082375206
23	0x3d1252c8	0.035723478
24	0xbe2170c7	-0.15765677
25	0xbdd6fa6b	-0.10496982
26	0x3e1783df	0.14796399
27	0xbd882ea2	-0.066495195
28	0xbd7d59bd	-0.06185316
29	0xbd854a50	-0.065083146
30	0xbc2f89b2	-0.010713981
31	0xbe1864b5	-0.14882167
32	0x3ac25ab8	0.0014828062
33	0xbdb1cead	-0.086819984
34	0x3d40b36b	0.047046106
35	0xbcac108d	-0.021003986
36	0x3e4b31d9	0.19843234
37	0x3dc26240	0.09491396
38	0x3e76d12e	0.24103233
39	0x3b95c118	0.0045701377
40	0x3dd4f651	0.103985436
41	0xbd1cc761	-0.03827608
42	0xbdaa8d3f	-0.08327722
43	0x3d7f8ee6	0.062392138
44	0xbcc6db51	-0.0242745
45	0xbe126b80	-0.1429882
46	0xbdf2cd95	-0.11855618
47	0x3db0e4e3	0.08637407
48	0xbdf6d94b	-0.12053164
49	0xbe4c57ce	-0.1995537
50	0xbcb4a0cf	-0.022049336
51	0xbd98c3a1	-0.07459188
52	0xbe00d839	-0.12582482
53	0xbdf4c520	-0.11951661
54	0xbda1ad58	-0.07894391
55	0x3c1234d1	0.008923725
56	0xbe0e5342	-0.13898948
57	0x3c45a9d7	0.012064419
58	0x3c82719e	0.015923318
59	0x3de4ec3c	0.11177871
60	0x3dab600a	0.08367927
61	0xbdc6e6ad	-0.09711967
62	0x3e1b5ab3	0.15171318
63	0xbda28cda	-0.079370216
64	0x3cbadd45	0.022810588
65	0xbd9cc7f8	-0.076553285
66	0xbe1af260	-0.15131521
67	0xbe5866cc	-0.21132964
68	0xbd4207d0	-0.04737073
69	0x3cbddc21	0.023176255
70	0x3e01b9f6	0.12668595
71	0x3e090f75	0.13384803
72	0x3ca3ddc8	0.020003214
73	0xbe0f9443	-0.14021401
74	0x3d49189b	0.04909573
75	0xbe26364c	-0.1623165
76	0x3db033dd	0.08603642
77	0x3ce38a91	0.027776035
78	0x3dc6e0e2	0.09710862
79	0xbd4da381	-0.050204758
80	0xbdc361fe	-0.09540175
81	0xbd341ad5	-0.0439709
82	0xbe27a8df	-0.16373013
83	0xbd42d852	-0.04756958
84	0xbdff8b38	-0.12477726
85	0x3c7bb1ed	0.015362245
86	0xbe1d2c3c	-0.15348905
87	0xbd86af48	-0.06576401
88	0x3de29ee7	0.110654645
89	0x3e2e4122	0.17017034
90	0x3cf6ec70	0.030142039
91	0x3d98dc7c	0.07463929
92	0xbe4f2603	-0.20229344
93	0xbcf7e541	-0.030260684
94	0xbc2ebcee	-0.010665162
95	0x3d189f7f	0.037261482
96	0x3e5b7c6b	0.2143418
97	0x3c952a32	0.018208597
98	0xbaad3c18	-0.0013216762
99	0xbdff8711	-0.12476934
100	0x3e17ee0f	0.14836906
101	0xbddb3c14	-0.10704818
102	0x3dc96a64	0.098347455
103	0x3dda8c9c	0.1067135
104	0xbdc1c3b0	-0.094611526
105	0x3e8a75c3	0.2704297
106	0xbb84b692	-0.0040500844
107	0xbe10cc0f	-0.14140342
108	0xbcb94f5a	-0.022620846
109	0xbc85c752	-0.016330395
110	0x3ddbe98a	0.107379034
111	0x3ca4d30d	0.020120168
112	0x3e6b2169	0.22961964
113	0x3d343a89	0.044001136
114	0xbcaf1d90	-0.021376401
115	0xbdb1c2a3	-0.08679702
116	0x3e2b4c6c	0.16728371
117	0x3d900573	0.07032289
118	0x3e054553	0.13014726
119	0x3e7de5ec	0.2479474
120	0xbca6ff03	-0.020385271
121	0xbc9e0ce8	-0.019293264
122	0x3e3dca7d	0.18534274
123	0x3cd47c0c	0.025938056
124	0x3d954dfc	0.07290265
125	0xbd09efae	-0.033675842
126	0xbdeb1d4d	-0.11480198
127	0xb9986aee	-0.00029071368
128	0x3e818dd7	0.25303528
129	0x3e33eb52	0.17570236
130	0xbe01eb99	-0.1268753
131	0xbda2854d	-0.07935581
132	0xbd445097	-0.04792842
133	0x3da30fb4	0.079619795
134	0xbded1ba8	-0.11577541
135	0xbe1acd28	-0.15117323
136	0x3e5955c8	0.21224129
137	0xbd8317da	-0.06401034
138	0x3d36af87	0.04460099
139	0xbdd7d1e5	-0.10538081
140	0x3d6f351d	0.058400262
141	0xbcdfa1c8	-0.027298823
142	0xbd6b0b23	-0.057383668
143	0x3c851d5c	0.016249351
144	0xbe04863f	-0.12941836
145	0x3db51ac7	0.08842998
146	0xbe1ac1de	-0.15113017
147	0x3e8f53fb	0.2799376
148	0x3e2581f2	0.16162851
149	0xbde8c6c8	-0.113660395
150	0x3e32957c	0.17439836
151	0xbce4cddd	-0.027930195
152	0x3c34fa08	0.01104594
153	0xbcf40185	-0.02978588
154	0xbc87b555	-0.016565958
155	0xbd94f7ed	-0.072738506
156	0x3e4dd39e	0.20100257
157	0xbcee0fc7	-0.029060258
158	0x3e95fc29	0.29293945
159	0xbd13d60e	-0.03609281
160	0xbe3ad230	-0.18244243
161	0x3d22ebcf	0.039775666
162	0x3e1c15d9	0.15242709
163	0x3dbaeaa7	0.09126788
164	0xbdd68cc9	-0.104760714
165	0x3d444f63	0.04792727
166	0x3c03951a	0.008031154
167	0x3ce6fe09	0.028197305
168	0x3d0d0047	0.034424093
169	0x3e40f85f	0.18844746
170	0xbe041799	-0.12899627
171	0xbd9596b8	-0.07304138
172	0x3d8b40dd	0.06799481
173	0xbe172e10	-0.14763665
174	0x3bcdf1e3	0.0062849387
175	0x3d0f129e	0.034929864
176	0x3b20f336	0.0024559028
177	0xbc5d50ee	-0.013508065
178	0x3dacfb02	0.084463134
179	0x3dbd92ce	0.092565164
180	0x3d8d0ccb	0.06887206
181	0x3e49df84	0.1971417
182	0x3d43b2f5	0.04777809
183	0xbdb01412	-0.08597578
184	0xba7b8050	-0.000959401
185	0xbca91044	-0.020637639
186	0x3dc63426	0.09677915
187	0x3df90b4b	0.12160357
188	0x3dd5e8bc	0.10444781
189	0x3a9133e5	0.0011078088
190	0x3e8c4b58	0.27401233
191	0x3e27c1b4	0.16382486
192	0xbded6cbf	-0.11593007
193	0xbe0afdc4	-0.13573366
194	0x3d1b5482	0.03792239
195	0xbe1228b7	-0.14273344
196	0x3e63d06b	0.22247474
197	0xbba6cf37	-0.00509062
198	0x3e2456dc	0.16048759
199	0x3d47b5ba	0.048757292
200	0x3e832dad	0.25620785
201	0x3d8be71a	0.068311885
202	0xbd2176e0	-0.03942001
203	0x3dad0937	0.08449023
204	0x3db451b5	0.08804647
205	0x3b23a886	0.0024972274
206	0xbdeea643	-0.11652806
207	0xbe67fa41	-0.22654058
208	0xbc795615	-0.015218277
209	0x3ddf8d7c	0.10915658
210	0x3e32622b	0.1742026
211	0x3e0add5f	0.13561009
212	0xbd1d2b39	-0.0383713
213	0xbd95a119	-0.073061176
214	0x3de756b9	0.11295838
215	0xbd66c685	-0.056341667
216	0xbde57b9e	-0.11205219
217	0xbcf84ff1	-0.030311557
218	0xbbe3c355	-0.0069507756
219	0x3e1fb55c	0.15596527
220	0x3c8e4c36	0.017370325
221	0xbcad0b72	-0.021123622
222	0x3d89d7b8	0.06730598
223	0xbca98204	-0.02069188
224	0x3e01ba0b	0.12668626
225	0xbdc0005a	-0.09375067
226	0xbe6079ef	-0.21921514
227	0x3c934204	0.017975815
228	0xbd021288	-0.031755954
229	0xbd12c864	-0.03583564
230	0x3d2896cc	0.041159436
231	0x3e379936	0.17929539
232	0xbb06dae2	-0.0020577242
233	0x3d7e0e9d	0.062025655
234	0x3d7553c2	0.05989433
235	0xbdda881c	-0.10670492
236	0x3ca1a407	0.019731535
237	0xbd8cb8e5	-0.06871203
238	0x3db3d35d	0.08780549
239	0x3db3416b	0.08752712
240	0x3d2fd2c9	0.04292563
241	0xbe356039	-0.17712487
242	0xbdd9272c	-0.106031746
243	0xbd4e2e38	-0.050337046
244	0xbc936beb	-0.017995795
245	0x3e63e2cc	0.22254485
246	0xbe258048	-0.16162217
247	0xbd8cefc4	-0.06881669
248	0x3dd1029b	0.10205575
249	0xbe296ed3	-0.16546182
250	0xbe1179d0	-0.14206624
251	0xbd999309	-0.07498748
252	0xbdb49b50	-0.08818686
253	0x3c67e91c	0.014154699
254	0xbd71dd65	-0.05904903
255	0xbdb06ba2	-0.08614279

gru.weight_hh_l1 f4 [150, 50]
0	0xbd8aaf4e	-0.06771718
1	0x3e816f0c	0.25280035
2	0xbcbbb396	-0.022912782
3	0xbc9c7c57	-0.019102259
4	0xbe696214	-0.2279132
5	0xbe1786ea	-0.1479756
6	0xbe16c73a	-0.14724436
7	0x3de5dc9e	0.1122372
8	0xbca6bda3	-0.020354098
9	0x3d91e596	0.07123868
10	0xbd430ed2	-0.047621556
11	0x3e0e4b59	0.1389593
12	0x3d93691f	0.07197785
13	0x3db2d1cb	0.08731421
14	0xbccc43b3	-0.024934625
15	0xbdac1287	-0.08401971
16	0xbe058071	-0.13037278
17	0x3d450fe4	0.048110858
18	0xbc0d1f18	-0.00861337
19	0x3de0da6f	0.10979163
20	0x3dda139f	0.10648274
21	0xbccbce54	-0.024878658
22	0xbe469195	-0.19391473
23	0xbdef4d25	-0.11684636
24	0x3d8693ae	0.065711364
25	0x3e3b7cb4	0.18309289
26	0xbe3d4550	-0.18483472
27	0xbd4094a5	-0.04701676
28	0x3d1b838a	0.037967242
29	0xbe55099e	-0.2080445
30	0xbc1e8c2e	-0.009676976
31	0xb9e05530	-0.0004278808
32	0xbd508863	-0.05091132
33	0xbded52cb	-0.11588057
34	0x3d94ed79	0.07271857
35	0xbe3a2402	-0.18177798
36	0xbe2882a6	-0.16456088
37	0xbe1680f2	-0.14697626
38	0x3d806848	0.0626989
39	0x3ca57c9f	0.020201026
40	0x3b9f38f0	0.0048590824
41	0x3e38d278	0.18049037
42	0x3df2803e	0.118408665
43	0x3ddb52cb	0.10709151
44	0x3e335f86	0.17516908
45	0x3e05d9a2	0.13071302
46	0xbd8a143c	-0.06742141
47	0x3c9bfbd1	0.019040974
48	0xbc816e80	-0.01579976
49	0x3e80fff9	0.25195292
50	0xbe144f24	-0.14483315
51	0xbd8642a3	-0.06555679
52	0x3e173a21	0.14768268
53	0x3d79c587	0.060979392
54	0x3df18cec	0.11794457
55	0x3d1530ec	0.03642361
56	0xbca60993	-0.020268237
57	0x3e09c402	0.13453677
58	0x3cd0cbd5	0.02548782
59	0x3e03e163	0.12878947
60	0x3d24fcc8	0.040280133
61	0x3d570fe9	0.052505407
62	0x3e193d74	0.14964849
63	0x3cde7fa9	0.027160482
64	0x3d8548a6	0.06507997
65	0x3dd6508e	0.10464583
66	0x3e2519d2	0.16123131
67	0x3e4c03fd	0.19923396
68	0xbd30128c	-0.042986438
69	0xbde28efa	-0.11062427
70	0xbb813a31	-0.0039437045
71	0x3ba07605	0.0048968815
72	0xbd73316f	-0.059373315
73	0x3e3d763c	0.18502134
74	0xbe0583fa	-0.13038626
75	0xbdb03584	-0.08603957
76	0x3bf572ce	0.0074904924
77	0x3d19e498	0.03757152
78	0x3cd08815	0.025455514
79	0x3c7825a2	0.015145691
80	0xbd87e29f	-0.066350214
81	0xbdd1e78a	-0.10249241
82	0x3b167f98	0.0022964235
83	0xbd713d78	-0.05889651
84	0x3e20f3be	0.1571798
85	0x3ca1564d	0.019694472
86	0xbe2afe53	-0.1669858
87	0xbd4b24d0	-0.049595654
88	0x3d810c64	0.063011914
89	0x3bea109b	0.007143093
90	0x3e0e1986	0.13876924
91	0x3dbe1ec0	0.09283209
92	0xbd4cf58b	-0.050038856
93	0x3b4be483	0.0031111545
94	0xbc65d0e9	-0.014026859
95	0x3d898dd3	0.06716504
96	0x3d428d16	0.04749783
97	0xbcf9dc17	-0.030500455
98	0xbe2c89a7	-0.16849385
99	0xbe269fae	-0.1627185
100	0xbdfbe758	-0.12299985
101	0x3e19e6d8	0.15029466
102	0x3c3640cc	0.011123847
103	0x3e16bf19	0.14721335
104	0xbe6838c9	-0.22677912
105	0xbd48dc9c	-0.049038514
106	0xbd62fd05	-0.05541708
107	0xbd8a23fb	-0.06745144
108	0x3c988b05	0.018620977
109	0x3d527418	0.051380247
110	0x3ca8e389	0.02061631
111	0xbe79eec0	-0.24407482
112	0x3d119dd8	0.035550922
113	0xb9c37180	-0.00037277862
114	0x3d164f7c	0.036696896
115	0xbd834587	-0.06409746
116	0x3c4fa626	0.01267389
117	0xbe085edb	-0.13317434
118	0x3e7f9251	0.24958159
119	0xbc8e967a	-0.017405737
120	0x3e19e762	0.15029672
121	0xbda2df49	-0.079527445
122	0xbe705633	-0.23470382
123	0x3e049d4b	0.12950628
124	0x3dd9ed3a	0.106409505
125	0x3e82f79f	0.25579545
126	0xbe0067ea	-0.1253964
127	0xbe17f3e3	-0.14839129
128	0x3d19f1ea	0.037584223
129	0xbc64f4d7	-0.01397439
130	0x3d9b4175	0.07580844
131	0x3dca1c7b	0.098687135
132	0x3cde3fda	0.027130056
133	0xbe7671e2	-0.2406688
134	0xbe4b13d2	-0.1983178
135	0xbd1eb085	-0.03874256
136	0x3e68b255	0.22724278
137	0x3c4ae65e	0.012384025
138	0xbcd682d6	-0.026185434
139	0xbe5a7cd1	-0.21336676
140	0xbdb5003c	-0.08837935
141	0x3e091ef2	0.13390711
142	0xbcabbd31	-0.020964237
143	0x3e3ec3bb	0.18629353
144	0x3c949b05	0.018140325
145	0x3ca9bc33	0.020719623
146	0xbd9e968f	-0.077435605
147	0x3df36259	0.11883993
148	0x3dbaf625	0.091289796
149	0x3ddbe1c8	0.10736424
150	0xbcb5675c	-0.022144012
151	0xbdb26617	-0.08710878
152	0xbcf3cc86	-0.02976061
153	0xbd9f13bf	-0.07767438
154	0xbd32cada	-0.043650486
155	0x3dcf4b3e	0.10121773
156	0x3e314ba1	0.17314006
157	0x3e547dd3	0.20751123
158	0x3dd2b5c2	0.10288574
159	0xbd277d4a	-0.04089097
160	0xbde0a8c9	-0.10969693
161	0x3ca412a9	0.02002843
162	0x3ded50b9	0.11587662
163	0x3e23c870	0.1599443
164	0xbd76c5fe	-0.060247414
165	0xbe5420fa	-0.20715705
166	0xbe3e6001	-0.1859131
167	0xbdffe544	-0.12494901
168	0x3e3a3ac4	0.1818648
169	0x3c97afe4	0.018516488
170	0x3c86a671	0.016436787
171	0x3d577b0e	0.05260759
172	0xbdb5d790	-0.08879006
173	0x3d0563bd	0.03256582
174	0xbd36d29a	-0.04463444
175	0x3dc4e483	0.09613898
176	0xbbc1813b	-0.005905298
177	0xbe074d64	-0.13213116
178	0xbd3ce5b6	-0.046117507
179	0xbe276098	-0.16345441
180	0x3e0d37a1	0.13790752
181	0xbdd5bfbb	-0.1043696
182	0xbe063c88	-0.13109028
183	0x3d394777	0.04523417
184	0x3c97662f	0.018481342
185	0x3e0380d0	0.12842107
186	0xbd93dd99	-0.07220001
187	0x3adc3bac	0.0016802452
188	0x3e280aae	0.16410324
189	0x3d844870	0.06459129
190	0xbcb4b845	-0.022060523
191	0x3e5a3f3a	0.21313182
192	0x3d4a6370	0.049411237
193	0xbc78da03	-0.015188697
194	0xbe35e65f	-0.17763661
195	0x3d5dec70	0.054180562
196	0x3ce6d70f	0.02817872
197	0x3e131a41	0.14365484
198	0xbc9d499c	-0.019200139
199	0x3dd0b87f	0.1019144
200	0xbc0aab4a	-0.00846369
201	0x3e7a8b60	0.2446723
202	0x3d7aa615	0.061193544
203	0xbb584fa4	-0.0033006454
204	0xbcf330f2	-0.029686425
205	0x3d2c28e5	0.042031188
206	0x3cb6e6f9	0.022326933
207	0xbd87f49d	-0.06638453
208	0x3e2d803a	0.16943446
209	0x3d7409d9	0.059579704
210	0xbd0c362a	-0.034231342
211	0xbd54a28b	-0.051912826
212	0x3dca5581	0.0987959
213	0x3d456e69	0.048201
214	0x3cb25480	0.021768808
215	0xbd53490e	-0.051583342
216	0xbdc236c2	-0.094831005
217	0xbe42e634	-0.19033128
218	0x3d94f1ba	0.07272668
219	0xbe1cb8eb	-0.15304916
220	0xbd42cdbb	-0.04755948
221	0x3d0ebaba	0.034846045
222	0x3d88581b	0.0665743
223	0xbd615863	-0.055015933
224	0x3e16c03a	0.14721766
225	0x3d2cdc49	0.042202268
226	0x3e343916	0.17599902
227	0xbd9cce85	-0.07656578
228	0x3de91c73	0.113823794
229	0x3c434f79	0.011920803
230	0x3ce5ae16	0.028037112
231	0x3dd2bae7	0.10289555
232	0xbc7fe74f	-0.015619113
233	0xbe0c0f42	-0.13677695
234	0x3d2d2101	0.042267803
235	0xbdef8979	-0.11696143
236	0x3ddbe6a6	0.10737352
237	0x3bb45dd3	0.005504349
238	0x3d4f7b1a	0.05065451
239	0x3dec9a1b	0.11552831
240	0xbe3ce65c	-0.1844725
241	0xbd80f09f	-0.06295895
242	0x3d852ebc	0.065030545
243	0x3d9e767d	0.077374436
244	0xbe423c72	-0.1896837
245	0x3ddb508d	0.10708723
246	0xbe5ba510	-0.21449685
247	0x3e2d45c2	0.16921142
248	0x3deac568	0.114634335
249	0x3e20b4c3	0.15693955
250	0x3d6558aa	0.05599276
251	0xbd94eee1	-0.07272125
252	0xbe011a68	-0.1260773
253	0xbe17eee9	-0.1483723
254	0x3d8c8a73	0.068623446
255	0xbd8d57b3	-0.06901493

gru.bias_ih_l1 f4 [150]
0	0x3d6e836a	0.058230795
1	0xbca84586	-0.020540964
2	0x3ded054d	0.11573277
3	0x3c828325	0.015931675
4	0xbdc9924f	-0.09842359
5	0xbde622ec	-0.112371296
6	0x3dd60195	0.104495205
7	0xbd55fee8	-0.05224505
8	0x3d3af94e	0.04564791
9	0x3d705533	0.058675002
10	0xbe17b60f	-0.14815544
11	0x3d28b01c	0.041183576
12	0x3e3bb722	0.18331578
13	0xbb08adee	-0.0020855623
14	0xbcbc9b4e	-0.023023274
15	0x3de25102	0.11050607
16	0x3dd6c14b	0.104860865
17	0xbe0e29a1	-0.13883068
18	0x3e20dabf	0.15708445
19	0xbd9ff87d	-0.07811067
20	0x3cd999ba	0.02656256
21	0x3a6a1612	0.00089296803
22	0x3d9a2f6f	0.075285785
23	0xbd282861	-0.041054133
24	0xbd9acb32	-0.07558288
25	0x3d54cfd6	0.05195602
26	0xbe0057dd	-0.12533517
27	0x3ca7eaf4	0.020497777
28	0xbdfe3a03	-0.124134086
29	0xbc9d66d6	-0.019214075
30	0xbdcb3844	-0.09922841
31	0xbca6e06b	-0.020370683
32	0x3d08870a	0.03333191
33	0x3e257512	0.1615794
34	0x3a48eead	0.000766496
35	0x3dedf61b	0.116192065
36	0xbd6662ff	-0.056246754
37	0x3cca36c1	0.024684312
38	0xbdf56851	-0.119827874
39	0xbcb05d26	-0.021528792
40	0x3e11b075	0.1422747
41	0x3e02aef8	0.12762058
42	0x3d450b98	0.04810676
43	0xbc49f210	-0.012325779
44	0x3d3abe9e	0.045591943
45	0x3c1147bb	0.0088671995
46	0xbce6ca39	-0.0281726
47	0xbd98ebf8	-0.074668825
48	0xbd8cf6e0	-0.06883025
49	0x3e42d431	0.19026257
50	0x3e47c192	0.19507435
51	0x3c9c5daa	0.019087631
52	0x3e00f96b	0.12595145
53	0x3e13d777	0.14437662
54	0x3d834272	0.06409158
55	0x3e35a26f	0.17737745
56	0xbcf21c28	-0.029554442
57	0x3e702a4f	0.2345364
58	0xbd490563	-0.049077403
59	0x3cdc2777	0.026874287
60	0x3dbee392	0.09320749
61	0x3d8552ac	0.06509909
62	0xba493b14	-0.0007676345
63	0xbd6415f6	-0.055685006
64	0xbe528063	-0.20556788
65	0x3d539483	0.051655304
66	0x3e456bd6	0.19279417
67	0x3ac7d0db	0.0015244739
68	0xbd9ca71a	-0.076490596
69	0x3d8824b4	0.066476256
70	0xbd95f57b	-0.07322212
71	0x3d8f05d2	0.06983532
72	0x3e19be27	0.15013944
73	0xbdf4bc4e	-0.11949979
74	0xbdb2b3da	-0.0872571
75	0x3e0a4724	0.135037
76	0x3d00e71e	0.03147041
77	0x3de52c3c	0.11190078
78	0xbdb62385	-0.088934936
79	0x3e028b4d	0.12748452
80	0x3d4cb215	0.04997452
81	0x3e54e94a	0.20792118
82	0xbe11743f	-0.142045
83	0x3d9660f3	0.0734271
84	0x3daf4e32	0.085598364
85	0x3e1a9af2	0.1509817
86	0xbc9fb2f7	-0.019494517
87	0x3d46497b	0.04840992
88	0xbe07b868	-0.13253939
89	0x3e00d37c	0.12580675
90	0xbda0a302	-0.07843591
91	0x3d228c0e	0.039684348
92	0x3dec6cc9	0.115441866
93	0x3dcf0696	0.10108678
94	0x3caa47a7	0.02078612
95	0xbc7d392a	-0.0154555235
96	0xbb814131	-0.003944539
97	0x3e0e835f	0.13917302
98	0x3e30095e	0.17191073
99	0x3c748f5e	0.0149267595
100	0x3c9228ee	0.017841782
101	0xbdbb72be	-0.09152745
102	0xbcaf2f64	-0.021384902
103	0x3d703a77	0.058649506
104	0xbe26febb	-0.1630811
105	0xbd81becb	-0.06335219
106	0xbde1de4f	-0.1102873
107	0x3dca15a7	0.09867411
108	0xbdfd6d70	-0.12374389
109	0x3e3b8e09	0.18315901
110	0x3e0c48b3	0.13699608
111	0x3e3e4ade	0.18583247
112	0xbe0cc01b	-0.13745157
113	0x3c52914c	0.012852024
114	0x3de10dc3	0.10988953
115	0x3dac10bd	0.0840163
116	0xbdbaf5b8	-0.091288984
117	0xbc083096	-0.008312365
118	0xbbe52510	-0.0069929436
119	0x3d354844	0.04425837
120	0x3d85c417	0.06531542
121	0xbe16ec00	-0.14738464
122	0xbd7b9fcb	-0.061431687
123	0x3cd71643	0.026255732
124	0xbdb0840a	-0.086189345
125	0xbd63a282	-0.0555749
126	0x3db535c4	0.088481456
127	0xbc15c964	-0.009142254
128	0xbe3582c2	-0.17725661
129	0xbdcca833	-0.09993019
130	0xbe21c384	-0.1579724
131	0x3d5a2194	0.05325468
132	0xbdcbdc25	-0.099540986
133	0xbdb1b020	-0.08676171
134	0xbd772d3a	-0.060345866
135	0xbe027923	-0.12741522
136	0x3d73112d	0.059342552
137	0x3da93217	0.08261507
138	0x3de6a3c6	0.11261706
139	0xbced8a7e	-0.028996702
140	0x3de45a8c	0.11150083
141	0x3cd566cc	0.026049994
142	0x3d103e4e	0.03521567
143	0x3e06246a	0.13099828
144	0xbdbcfb9d	-0.09227679
145	0x3d9cdc9f	0.07659268
146	0xbddd3ff1	-0.108032115
147	0x3dc9bc16	0.09850328
148	0xbbf7faac	-0.007567724
149	0xbc26a710	-0.010171667

gru.bias_hh_l1 f4 [150]
0	0xbe03d2c8	-0.12873375
1	0xbe0e14bc	-0.13875097
2	0xbd99bba3	-0.07506492
3	0xbd2257e6	-0.039634608
4	0x3da6ffbf	0.081542484
5	0xbe0e0add	-0.13871332
6	0x3dd66181	0.10467816
7	0xbc48b496	-0.012250086
8	0x3cbcb536	0.023035627
9	0x3e02344b	0.1271526
10	0xbe0a5a04	-0.135109
11	0xbd1f9956	-0.038964592
12	0xbd737d29	-0.059445534
13	0xbca4a496	-0.020098012
14	0xbd8b6762	-0.06806828
15	0x3d131fdd	0.03591906
16	0x3ccbad35	0.024862865
17	0xbdad3c19	-0.08458728
18	0xbd7cd6cd	-0.061728287
19	0x3dd71c4c	0.10503444
20	0x3db806e8	0.08985692
21	0xbd17e9b8	-0.037088126
22	0xbe09a988	-0.13443577
23	0x3cd41498	0.025888726
24	0xbdb7492a	-0.08949502
25	0x3df1c3de	0.11804937
26	0x3d5f876a	0.0545725
27	0xbc57ee0e	-0.013179315
28	0xbcdaf68f	-0.026728896
29	0xbc8cea61	-0.017201604
30	0xbd21f39f	-0.039538976
31	0xbe2a9012	-0.16656521
32	0x3bb8941b	0.00563289
33	0x3df98bd0	0.1218487
34	0x3e27dea0	0.16393518
35	0x3e04f557	0.12984215
36	0x3da642eb	0.08118232
37	0x3d01029a	0.03149662
38	0x3df66170	0.120303035
39	0xbd45b73b	-0.048270445
40	0x3dcb6e3b	0.09933134
41	0x3d90c1fc	0.070682496
42	0xbd2a0bcb	-0.041515153
43	0x3ddeb746	0.108748004
44	0x3cc96add	0.02458709
45	0xbcc73f0f	-0.02432206
46	0x3df587bc	0.1198878
47	0xbdddb1d7	-0.10824936
48	0xbd616827	-0.055030968
49	0x3e275a41	0.16343023
50	0x3df807bb	0.121108495
51	0x3d16f8f5	0.036858518
52	0x3e36c120	0.17847109
53	0x3e41f8bf	0.18942545
54	0x3e470663	0.1943603
55	0x3c3da5f8	0.011575215
56	0x3d912868	0.07087785
57	0x3dde0be4	0.10842112
58	0x3c538160	0.012909263
59	0xbc32c250	-0.0109105855
60	0x3e4fa636	0.20278248
61	0x3c688b6d	0.014193398
62	0x3e59368c	0.21212214
63	0xbdb91f1e	-0.09039138
64	0xbb810bfc	-0.003938196
65	0x3e497ebb	0.1967725
66	0x3e174000	0.14770508
67	0x3cc47b59	0.023984598
68	0x3da9b20d	0.082859136
69	0x3d8cf13e	0.06881951
70	0x3d648701	0.055792812
71	0xbd49df0b	-0.049284976
72	0x3ea150b4	0.31506884
73	0xbe58f2a6	-0.21186313
74	0x3d3753da	0.0447577
75	0x3e34012d	0.17578574
76	0x3cbd3743	0.02309764
77	0x3e7e8d87	0.24858676
78	0xbe79132e	-0.24323723
79	0x3e0f6bc7	0.14005958
80	0x3cbf3efe	0.023345467
81	0xbd4ce586	-0.050023578
82	0x3a945517	0.0011316863
83	0xbcb4a538	-0.022051439
84	0x3e253447	0.16133223
85	0x3cbe5e1c	0.023238234
86	0x3dc8a026	0.09796171
87	0x3cfab4ed	0.03060385
88	0xbe361255	-0.1778043
89	0x3d8ef26c	0.06979832
90	0xbe821930	-0.25409842
91	0x3e0a46a7	0.13503514
92	0x3c2eb182	0.010662438
93	0x3e8eabe0	0.27865505
94	0x3d4db011	0.050216738
95	0xbe1aa27d	-0.15101047
96	0xbdbcbd93	-0.09215846
97	0xbd55b720	-0.052176595
98	0xbd76b221	-0.06022847
99	0x3e074502	0.13209918
100	0x3ccdbbaf	0.025113909
101	0xbd76fbcb	-0.060298722
102	0xbda65b81	-0.08122922
103	0xbd1dbd01	-0.038510326
104	0xbdbba345	-0.091620006
105	0xbdc38876	-0.09547512
106	0xbdd6a4e9	-0.10480673
107	0x3d883031	0.06649817
108	0xbd412845	-0.047157545
109	0x3d10eea0	0.03538382
110	0x3d9fc96a	0.078020886
111	0xbc1e8652	-0.009675579
112	0x3d1b0bf5	0.0378532
113	0x3de1541a	0.11002369
114	0x3daee392	0.08539499
115	0x3dbd3cdf	0.09240126
116	0xbde751e9	-0.1129492
117	0x38f07f00	0.000114677474
118	0x3d8edbc1	0.069755085
119	0x3e06db0e	0.131695
120	0xbda287b7	-0.07936042
121	0x3d7d69e9	0.061868582
122	0xbd2b9466	-0.04188957
123	0xbe12bd22	-0.14329961
124	0x3dd037c8	0.101668894
125	0x3e031f3b	0.12804882
126	0x3cda63e7	0.026658965
127	0xbd9c6a81	-0.076375015
128	0x3da6edcc	0.08150825
129	0x3a41e8ae	0.00073970377
130	0x3dbaabf3	0.09114828
131	0xbbd2f79b	-0.0064382083
132	0x3dc7081b	0.09718343
133	0x3de80b44	0.11330274
134	0x3e0205b8	0.12697494
135	0xbdceb93e	-0.10093926
136	0xbd35b2e4	-0.044360057
137	0x3e4c6077	0.19958673
138	0x3bce6576	0.006298716
139	0xbc6444b3	-0.013932395
140	0x3de7a0b1	0.11309946
141	0x3e031f7b	0.12804978
142	0xbe3b9aa3	-0.18320708
143	0xbdcc68b7	-0.0998091
144	0x3d4c1b01	0.04983044
145	0x3d17af76	0.037032567
146	0xbc8b727f	-0.01702237
147	0xbdbc6ebe	-0.0920081
148	0xbe348696	-0.17629465
149	0xbda9194d	-0.08256779

fc.weight f4 [1, 50]
0	0xbdb86ac4	-0.09004739
1	0x3d8ed3d4	0.06973997
2	0xbd954626	-0.072887704
3	0xbd9fc9da	-0.07802172
4	0xbd3f835a	-0.046756126
5	0x3cc6e51f	0.024279175
6	0x3b9ad6dd	0.0047253207
7	0x3d0befc2	0.034164198
8	0xbe0730e9	-0.13202251
9	0x3ddf6269	0.10907442
10	0x3c051d75	0.008124699
11	0x3e2208c8	0.15823662
12	0xbd18e515	-0.037327845
13	0xbc8ea0b1	-0.017410608
14	0x3deb9708	0.11503416
15	0xbd90fc50	-0.07079375
16	0xbd8acd5d	-0.06777451
17	0x3da1e758	0.079054534
18	0xbc80887b	-0.015690079
19	0x3d3bc8c1	0.04584575
20	0x3cd0b4aa	0.025476772
21	0xbc69aeb8	-0.014262848
22	0xbc266410	-0.010155693
23	0x3cd8afe0	0.026451051
24	0xbce0236a	-0.027360637
25	0x3c7810e4	0.015140746
26	0x3d19f42c	0.037586376
27	0x3dbcfa69	0.092274494
28	0x3d5dd171	0.054154817
29	0xbe18b598	-0.14913023
30	0xbdcab766	-0.09898262
31	0xbd317233	-0.0433218
32	0x3b534428	0.003223667
33	0x3c9ae511	0.018908055
34	0xbbe4ffb7	-0.0069884914
35	0xbdd620ce	-0.10455476
36	0xbc037c3c	-0.008025225
37	0xbbeb4773	-0.0071801483
38	0x3cfe0843	0.031009799
39	0x3d64c134	0.055848315
40	0x3e16b5df	0.14717816
41	0x3d89a672	0.067212
42	0x3c328182	0.010895135
43	0x3d72f219	0.059312914
44	0x3d7dd4c3	0.061970484
45	0xbd214a4a	-0.03937749
46	0xbcadcf25	-0.021216938
47	0x3df7e7cf	0.12104761
48	0xbd10f874	-0.035393193
49	0x3d32b68b	0.043631118
