model_ANNR.pth (torch, 204815 bytes, 7 tensors)

fc1.weight f4 [112, 224]
00000000: 5598 4ebe 4a08 80be b8c1 5dbe bd59 4cbe
00000010: faac 273e fc9e 133f cb43 92be 81dc 263f
00000020: db74 b43d 3939 20be 8cc9 95bd 0a22 02be
00000030: 5329 90bd 2eda 4fbd 1b9e 96be df81 6cbe
00000040: 0f6e 56bd cae0 cfbd 36bb 34be f958 e2be
00000050: b286 593c 92b1 663e e309 b3bd e7b4 593e
00000060: f527 26bf aea8 a6be 7e4e a5bd c0aa 9a3d
00000070: db86 0f3f 7274 04be 5ddd b53e 59b5 7abd
00000080: 9b02 a2be 145c 253e ff34 a53d 351f 953d
00000090: cf21 153f ded3 403f 330a 98bd c886 b83e
000000a0: 713a 0b3f ea83 ebbd bb62 0ebf 57b0 76bd
000000b0: 48e0 0c3f aee5 233e da20 32be e89f 2dbe
000000c0: 35f6 edbc 8ee8 623f 9906 4abe da76 7e3e
000000d0: ff80 52be 5f12 a33e eac5 4c3e c85d 1f3e
000000e0: 5b8e 023f d96b 7abe 17dd 6d3e cbc5 babc
000000f0: 5868 1cbe 4844 023e 8085 713d 22b5 bd3d
00000100: 5b1e 14be 1c69 9e3e 15f0 073f 53ef a83e
00000110: 60f0 b1be 4a39 7c3f 4335 91bd f7ac 9c3e
00000120: ed9d bcbe f7b1 ccbe b116 06bf 09d9 babe
00000130: 38d8 36be e9a9 83be 35d0 c5bd fd56 c5bd
00000140: e792 dd3e b3fe 76be fe43 47be 85ca 1bbf
00000150: 428f f5be 21fe bdbe 81ea e4be 30af b2be
00000160: 69c7 b8be 9ad6 9abe 2c16 df3e 9015 febe
00000170: 5e70 ec3e 2d26 c7be f21a c4be 96d5 0bbf
00000180: f118 b8be 9d01 cbbe bdde 81be ae4a 05bf
00000190: 64cf 9abe bfbe fbbe b304 6f3e 8691 443f
000001a0: ef2f f3bd 96a1 f63e ddd7 27be 2498 a2bd
000001b0: 2efe a0be 1abe f8be ba4b 9bbe 8508 24be
000001c0: 89e9 293f f81a dcbe 4b86 903f 9dc6 8bbe
000001d0: 9100 583d 7413 8abe d5ac 24be c282 873e
000001e0: a252 f03e 6b50 ef3e a5d7 593e d5dd bb3e
000001f0: d118 94bd 151a 903e 5dd2 3dbe 835d 15bf
00000200: add7 36be 31c7 4bbe 1aa4 87bd f3ad e5be
00000210: dbeb d5be 938d 99be 0608 debe 36d9 31be
00000220: 733b a13e 3046 993e c7c2 fe3d f117 01be
00000230: a142 55be 0628 7bbc 9a5e 12be a993 a03e
00000240: 8528 adbd b9bf 213e 4e46 573d 3779 26bd
00000250: 5cfc 68be 7de1 00be 6511 99be 512e 9bbe
00000260: b5b2 1fbe 8abe 6ebe 72ba 13be 4dc1 a7bd
00000270: 00fe 11bd 65a6 ac3f bd04 bc3d 884e 0cbe
00000280: a756 87bd 1d2b 60be 2ed5 f7bb 1beb de3d
00000290: 9412 a33e 23ac 9e3e 146e 9a3e 2d95 f0bd
000002a0: 1cde c23e b15d 7f3d 5ee4 bf3e b2c9 d23e
000002b0: 45a7 9e3f 0e94 883e 3434 2e3f 4d2e 833e
000002c0: a3e9 543f 64eb 15bf 8833 c6be ef84 29bf
000002d0: 691a 763e 3542 d9be 4f92 24be f351 c83e
000002e0: 26cf 7e3f 689c 393f b278 babb ff84 0a3f
000002f0: 1fbe 623e 2141 eebe fd68 0ebf f9a1 1dbf
00000300: 96bc 723f 97d6 003e 6262 4b3f d31e 4fbd
00000310: f11a 00bd 59f8 df3e 0e22 2d3e aec9 1c3f
00000320: 25c4 0d3f 4201 733e 9c8d 823e a768 37bd
00000330: ae15 643e e010 6a3b 2d0f f53e 2b0f f2bd
00000340: 747a 91be f8c5 9b3e a572 a03e 655c c33e
00000350: 1e88 d03e 8a0b ba3e 00b3 3abc 7014 9b3e
00000360: 300e 713b d926 3f3e 0fef cd3e 782b 24bd
00000370: e716 903e 7e3d 07bf 60e2 283e 6d1d e7bd
00000380: ec74 043e b847 873c 5da1 a13d c0aa b33e
00000390: 4ae9 703f bb42 b0bf 8612 1340 c2b9 dfbe
000003a0: 6900 053f bc49 953e 3ded f2be 0dae 10bf
000003b0: c362 cdbe b1fd 86bf 3afa 66be a26a 9c3e
000003c0: 0c09 65bf 0997 b93e e00e 95bf ad7d e13e
000003d0: e056 56ba 11b0 9cbf d211 efbe 606f 053f
000003e0: 0b68 8fbf 475b 9cbe 71f2 2bbf 416b 3e3f
000003f0: 7e16 92be 64b0 32bf 8846 a3be c7be 913e
-0.20175298 -0.25006324 -0.21655929 -0.19956107 0.16374579 0.57664466 -0.28567347 0.6518021
0.08811351 -0.15646829 -0.07313833 -0.12708297 -0.07039132 -0.05074518 -0.294175 -0.23096417
-0.052351054 -0.10150297 -0.1764954 -0.44208506 0.013276743 0.22528675 -0.0874212 0.21260415
-0.6490472 -0.32550567 -0.08071612 0.07552099 0.5606515 -0.12935045 0.3552045 -0.061208103
-0.31642613 0.16148406 0.08066749 0.07281343 0.5825471 0.75323284 -0.0742382 0.3604033
0.5438605 -0.1149977 -0.556194 -0.060226765 0.55029726 0.16005585 -0.17395344 -0.1695553
-0.029048065 0.886361 -0.1972908 0.24850026 -0.2055702 0.31849954 0.19997373 0.15563118
0.5099847 -0.24455203 0.2322887 -0.022799393 -0.15274179 0.1272136 0.058965206 0.09263064
-0.14464705 0.30939567 0.5310071 0.3299509 -0.34753704 0.98524916 -0.07090237 0.30600712
-0.36839238 -0.39979526 -0.52378374 -0.3649371 -0.17855918 -0.2571557 -0.09658853 -0.09635732
0.4327614 -0.24120598 -0.1945953 -0.60855895 -0.4796086 -0.37107947 -0.44710162 -0.34899282
-0.36089638 -0.30241853 0.43571603 -0.49625826 0.4617948 -0.38896313 -0.38301808 -0.5462278
-0.3595653 -0.39649668 -0.25365248 -0.5206708 -0.3023635 -0.49168965 0.23341636 0.7678455
-0.11874377 0.48170155 -0.16390939 -0.07939175 -0.31443924 -0.48582536 -0.30331212 -0.16018875
0.6637197 -0.42989326 1.1290983 -0.27299967 0.052734915 -0.26967967 -0.16081555 0.26466948
0.46938044 0.46741042 0.21273668 0.36692682 -0.07231296 0.281449 -0.18537278 -0.5834581
-0.17855711 -0.19900204 -0.06623097 -0.44859275 -0.41781506 -0.29990825 -0.43365496 -0.17368016
0.3149067 0.2993636 0.124394946 -0.12606789 -0.20826198 -0.015329367 -0.142939 0.31362656
-0.08454994 0.15795793 0.052557282 -0.040642943 -0.22752517 -0.12586017 -0.29896083 -0.30308774
-0.15595515 -0.23314872 -0.14426592 -0.08191166 -0.035642624 1.348828 0.09180591 -0.13701832
-0.066083245 -0.21891446 -0.007563255 0.108846866 0.3185011 0.30990705 0.30162108 -0.11747203
0.3806008 0.06234521 0.37478918 0.41169506 1.2394797 0.26675457 0.68048406 0.25621262
0.83169 -0.585623 -0.3871119 -0.66218466 0.24033512 -0.42433324 -0.16071437 0.39125022
0.99534833 0.7250428 -0.0056906575 0.54109186 0.22142838 -0.46534064 -0.5562895 -0.61575276
0.9481901 0.1258186 0.79446995 -0.050566506 -0.031275693 0.43744162 0.16907522 0.6124524
0.5537742 0.23730949 0.25498664 -0.04477754 0.22273895 0.0035715625 0.4786314 -0.11819299
-0.28413737 0.30424476 0.31337467 0.3815643 0.4072885 0.3633693 -0.011395216 0.3028903
0.0036782138 0.18667163 0.4022145 -0.040080518 0.28142473 -0.52828205 0.16492605 -0.112849094
0.12935227 0.01651369 0.07892106 0.3509121 0.9410597 -1.3770365 2.2980056 -0.4369641
0.5195375 0.29157817 -0.47446623 -0.5651558 -0.40114412 -1.054617 -0.22556391 0.30550104
-0.8946693 0.36248043 -1.1645164 0.44041196 -0.00081763975 -1.2241231 -0.46693283 0.5212307
-1.1203626 -0.3053839 -0.6716681 0.74382406 -0.28532785 -0.698004 -0.3188975 0.28465864

fc1.bias f4 [112]
00000000: 4315 8d3e 81e2 4ebe 5917 333e 315c 203e
00000010: 821d c0be 33ed 98be e8e4 533b 8b97 2bbe
00000020: 8542 c3be de52 d1be 956a c7be 9d48 f1be
00000030: 6f61 c73e ce5f 853e 379d a6be 473f 873e
00000040: 38ce 243f c71e 33bf 9c4a ee3d 1b62 0a3e
00000050: 6fdb fcbd c4e2 123d 66f5 8abe be9a 03bf
00000060: 4015 a23e 2071 cbbe e6b0 1b3f 700c 6fbe
00000070: 3c2b 613f ca70 633e 0fd9 853e 7923 003f
00000080: d918 0a3e 30e6 d13e 647f 40be 1dbf b9be
00000090: 469e 3a3f 8e4a 1ebf 3b53 003f 0685 8e3e
000000a0: 9a6f b53e 857e ca3d 3aae ca3e 038b 08bf
000000b0: 4aa9 8a3e a1eb 933e cb70 d43e 3f64 c0be
000000c0: c0d1 533e 0c52 6fbe aa66 973e 09b2 eb3e
000000d0: ca4d a33e 7f6a 58be 0224 9fbe 17cc 453e
000000e0: e43c b63e 58a3 6f3e d167 873e 5f8d 713e
000000f0: 2d7e 75be fd5d debe ac6a 8d3e e175 a93e
00000100: 3667 c43e 1626 0e3e fdcd 403e dc62 243f
00000110: fca9 873e b267 8e3e ddda 92be 8d10 4abe
00000120: ff7b 83be 7438 ce3e 5f47 fabe 49f9 633e
00000130: ba41 6dbe 7b07 753e fdad c3be eb2e de3d
00000140: fcf4 ee3e 4363 2d3e ff78 a33e 2631 efbe
00000150: 8d60 7cbe cfc0 a2be 7128 a23d e42c aebd
00000160: ddae 93be 890f 44bd ec74 033f 1752 bcbe
00000170: d02f fc3e 5e01 b33e 9440 be3e babd 65be
00000180: 63a9 433e 495f 313e 4087 bc3e cb67 d13e
00000190: 76d9 ed3e 8864 c1bd c34a 903e a7e2 dd3d
000001a0: 9973 e2be 04c4 113e c172 00bf 6ff6 e03e
000001b0: f26a acbe 1bd3 2ebe 2a0e dabe 92e4 b2be
0.27555284 -0.20203592 0.17489375 0.15660168 -0.37522513 -0.2986847 0.0032332484 -0.16757028
-0.38136688 -0.40883535 -0.38948503 -0.47125712 0.38941523 0.26049656 -0.3254182 0.26415464
0.64377165 -0.6996884 0.11635324 0.13513987 -0.12346541 0.03586079 -0.2714035 -0.5140799
0.31656837 -0.39734745 0.608168 -0.23344588 0.87956595 0.22210994 0.26142165 0.50054127
0.13486041 0.40995932 -0.18798596 -0.3627862 0.72897756 -0.6183251 0.50127 0.27835864
0.35436708 0.09887413 0.3958605 -0.53337115 0.27082282 0.28890708 0.41492304 -0.37576482
0.20685482 -0.23371142 0.29570514 0.46034268 0.31895286 -0.21134375 -0.3108216 0.19316135
0.3559333 0.23402154 0.26446393 0.23589085 -0.23973913 -0.43431082 0.27620447 0.33097747
0.38359994 0.13881716 0.18828578 0.6421335 0.26496875 0.27813488 -0.28682604 -0.19732876
-0.2568054 0.40277445 -0.48882577 0.22263063 -0.23169604 0.23928635 -0.3821868 0.10848793
0.46671283 0.16932397 0.3192825 -0.46717185 -0.24646206 -0.31787726 0.0791787 -0.08504656
-0.28844348 -0.047866378 0.51350284 -0.3678138 0.49255228 0.3496198 0.37158644 -0.22435656
0.19107585 0.17321505 0.36821938 0.408995 0.46454972 -0.09443003 0.2818204 0.10834246
-0.4422882 0.1423493 -0.501751 0.43938014 -0.33675343 -0.17072718 -0.4258893 -0.3494001

fc2.weight f4 [112, 112]
00000000: 9284 4ebd 865b 51be 967d 983d 4982 f73c
00000010: f43e 283f d9cb c53e 1fea 023e 0b87 b4bc
00000020: b47d 1ebe 5be2 0d3f fee3 013f da29 f83e
00000030: a91c 03bf 8119 95be 8949 0cbf cafe 83be
00000040: 14f2 42bf 33a8 373e 3434 043e 8647 79be
00000050: 19c4 b53e 7bc6 b1bd 6d4c 1e3d 503e aabe
00000060: c815 f7be 8523 863e 75df 1dbf bcfd e93e
00000070: 1c25 073f 3de4 5bbd b83f c7be 6b37 e9be
00000080: 8233 dbbd b977 28bf 3ead a1be 659b a73e
00000090: 62af a73d d7a8 523e 9a20 cebe 346c 8bbe
000000a0: 8287 c2be 15e4 343a 7505 6fbe d226 f83c
000000b0: ded7 9abe ca85 8b3d 8610 99be ec12 d53e
000000c0: 23e6 2c3e 3ab1 213e eea1 363e cd09 0bbf
000000d0: a408 563c dd22 6c3d 37f1 b03e d4f7 873d
000000e0: f37d e1be 3a85 6f3d 5c10 0bbf a7e4 7eba
000000f0: fee1 a2bc e905 6fbe 7690 8a3e f5a7 cbbe
00000100: 3260 f73d 4f2b 3a3e 163f 973e c396 0abf
00000110: 4806 ae3e 9b0c 8abe 789c 00bf 456c 8abd
00000120: b32e ac3e b34a ebbe 77f6 ccbc ed7d 803c
00000130: 0953 e53e cd24 febd 4d12 0e3e b035 1dbe
00000140: 8948 b4be d7e0 b33e a2be a3bd 82bc 4b3e
00000150: e59d 6ebe d358 013e cb5c b2bc 5e15 863d
00000160: 8308 873d d8cd 95be 4fbe c5be 6ef8 1f3f
00000170: ff34 5cbe 3644 703d 0bde f83d a571 833e
00000180: a442 10be d44e bbbd 22ab 243e 19cf 27be
00000190: 8db8 95bd 2105 053f 3254 d5be 9d80 fdbe
000001a0: 5ca1 8c3e ed50 15bd 9232 023f 09d1 26be
000001b0: 132e 153f 8974 4e3e f296 9e3e 74c1 df3e
000001c0: 6cb8 4f3e 5f16 f13e ef62 ce3e 3e7a 21bc
000001d0: 14f6 3e3f c28f b03e 827f b53e 9259 6ebe
000001e0: 2ddf 04be 277c 773e 44cc a53e 586b 9b3e
000001f0: 64ce 0bbf 5fbb 08bf e4ae 80be 8586 ccbe
00000200: cde1 e9be cced c0bd 80e6 08bf 972d 80be
00000210: a135 ea3e a40e bebe c1ff 69be bda6 dcbe
00000220: a43a 0ebe 58de 043f bfbf 83be 927a b53e
00000230: 6fc0 173f c01d 8c3e 5e00 94be 4703 d0bd
00000240: 135f b4bc f1ca 1fbf a545 ebbe 0bc9 243e
00000250: af26 a73e 7446 9a3e 1006 17bf 4202 21be
00000260: 0e49 aabd 49d1 fb3e d46d 03bd 8eab d4bc
00000270: d6bc 11be e153 84be 33e3 c8be 8f34 61bd
00000280: b21b 87bd d2d6 843e 0e42 a53d 3ed5 85be
00000290: 1c93 a63e f0b3 ed3e 65b0 db3e 7c1a 15bf
000002a0: 7e82 ecbe 1c1f 0e3e c97d b5be f508 1a3e
000002b0: 027d 333e 1714 b0bd f12a 1bbd 22d7 c9be
000002c0: 5f59 963d f327 373f 4f90 b93d a439 cdbe
000002d0: e562 503e 82d6 88be 8fc8 1fbf ccfd 3dbe
000002e0: 438c 6b3d ed4a cabe ce07 2f3f 5d3b 903e
000002f0: 5ddd cb3e 49dd 483e 4296 993e 7c39 04bf
00000300: d2d5 b6be 8cee 023f 42b3 853e e51e 683e
00000310: 10f3 a3be d301 16bf 90c7 023e 1d00 3ebd
00000320: 07b9 b0bd 3663 08be 93a5 b1be f9f6 eb3e
00000330: 0e05 3ebd c066 1c3e 9da4 f3be e5b4 8cbc
00000340: 7f8f b7bc 4489 c83d c9a9 163f 05bb 25be
00000350: 3cb8 d3be 9075 403e 7696 0cbf 0aad e6be
00000360: 1d9a 983e 899c 603e 6d42 b33e 998f d93e
00000370: 319c 023f 0243 9cbd 0392 de3e aa94 aa3e
00000380: de3a 5dbe 914c d2be 9526 8fbe 58c3 5abe
00000390: 0ac0 7e3e 5233 9fbc d1e7 ebbd 73c2 0e3f
000003a0: 5f54 c03e 8ff0 f93d 0786 9cbe 44ee 26be
000003b0: 8717 143e 59a7 513e ef3b 743e 6782 7c3e
000003c0: cb31 f73d adc7 ed3e 326f 693e 3a01 44bc
000003d0: 03bc 033e 6eb8 b23e a5f6 703e c651 a53e
000003e0: b06a 7f3e ec2b 92be e20b a33e c208 75be
000003f0: e338 82bd 2aaf 6cbe 7cf7 0e3e 65ba de3e
-0.050419398 -0.2044507 0.074458286 0.030213492 0.6572106 0.38632086 0.12784623 -0.02203705
-0.1547764 0.55423516 0.50738513 0.4846943 -0.51215607 -0.2912102 -0.54799706 -0.25780326
-0.7615063 0.17935257 0.12910539 -0.2434369 0.35501173 -0.08680435 0.038647104 -0.33250666
-0.48258805 0.26198974 -0.61669093 0.45701396 0.52791 -0.05368446 -0.389158 -0.45550093
-0.10703184 -0.6580768 -0.31577486 0.32735744 0.081877485 0.2057222 -0.40259248 -0.2723099
-0.3799401 0.0006900442 -0.23341925 0.030291948 -0.3024282 0.068126276 -0.2989542 0.41616
0.16884665 0.15790263 0.17835209 -0.5431183 0.0130635835 0.057650436 0.34559032 0.06639066
-0.44041404 0.058476664 -0.5432184 -0.0009723403 -0.019883152 -0.23342098 0.2706334 -0.3977658
0.12078895 0.18180583 0.29540318 -0.54136294 0.33989167 -0.26962742 -0.5023875 -0.06758932
0.3362938 -0.45955428 -0.025019867 0.015685046 0.44789913 -0.12409363 0.13874169 -0.15352511
-0.3521159 0.35132477 -0.07995345 0.19896129 -0.2330242 0.1263154 -0.021772763 0.06547044
0.0659342 -0.2925861 -0.38621756 0.6248845 -0.21504591 0.0586588 0.12151726 0.2567264
-0.14087921 -0.09145895 0.16080907 -0.16387595 -0.07310591 0.5196095 -0.41665798 -0.49512187
0.27466857 -0.03645413 0.50858414 -0.16290678 0.5827343 0.20161642 0.30974537 0.4370228
0.20285195 0.4708738 0.40309855 -0.009855805 0.74594235 0.34484679 0.35448843 -0.23276356
-0.1297576 0.24168454 0.32382405 0.30355334 -0.546118 -0.53410906 -0.2513343 -0.3994638
-0.45680085 -0.09420356 -0.53476715 -0.25034782 0.4574404 -0.37120545 -0.22851469 -0.4309596
-0.13889557 0.5190177 -0.25732228 0.35445076 0.59278005 0.27366447 -0.2890653 -0.10156875
-0.022017991 -0.6241904 -0.45951572 0.16092317 0.326467 0.30131876 -0.58993626 -0.15723518
-0.08314715 0.4918311 -0.032087162 -0.02596071 -0.14232191 -0.25845245 -0.3923584 -0.054981764
-0.06597079 0.25945145 0.080692396 -0.26139253 0.3253411 0.46426344 0.42908016 -0.58243537
-0.46193308 0.13879055 -0.3544753 0.1504248 0.17528155 -0.08597582 -0.03788275 -0.39421946
0.07341265 0.7154533 0.09060728 -0.4008304 0.20350225 -0.26726156 -0.62415403 -0.18553847
0.05750681 -0.3951029 0.68371284 0.2817029 0.39817324 0.19615664 0.2999745 -0.51650214
-0.35710007 0.51145244 0.26113325 0.22668035 -0.3202138 -0.58596534 0.1277144 -0.046386827
-0.08629041 -0.13319096 -0.34696636 0.46086863 -0.04639154 0.15273571 -0.47586527 -0.017176101
-0.022407291 0.09791806 0.5885282 -0.16184624 -0.41351497 0.18794847 -0.54917085 -0.45053893
0.2980508 0.21934713 0.35011616 0.4249237 0.5101958 -0.07629968 0.43470773 0.33316547
-0.21604487 -0.4107404 -0.27959123 -0.2136358 0.24877945 -0.019433651 -0.11518825 0.55765456
0.3756437 0.12204086 -0.30571005 -0.16301829 0.144621 0.20473994 0.23850988 0.2465912
0.12070044 0.46441403 0.22796324 -0.011963183 0.1286469 0.34906334 0.23531587 0.3228895
0.24943042 -0.28549135 0.31845003 -0.23929122 -0.063585065 -0.23113695 0.13961595 0.43501583

fc2.bias f4 [112]
00000000: b1e0 8f3d bea5 10bf 7c0a d13e 66a7 36be
00000010: bdd0 5d3e eeec 2fbe 0aa2 a83e 6680 c5be
00000020: c02d 683e 210e 97be 163f bbbe c22a 82be
00000030: c8c4 823e 964e 8d3e 0ce3 983e b724 953d
00000040: 7f0e 9b3e 5f17 5ebe fd37 2b3e 8ac4 de3e
00000050: 6f06 a7be 6884 c4be 0b7c 223e 5f32 8a3e
00000060: 7f81 3fbe a9e6 dc3d 6b75 17be cef3 b83e
00000070: 2323 a53e 5010 9a3e d3de 7ebe e22f 773e
00000080: 03ab dbbe 5577 2d3e 38ab e83e affe 443e
00000090: d4f6 b3be d37a cabe ff2d 913e 34b2 ba3e
000000a0: 3965 c83e 6da0 d9bd d7cc 91be 9899 26be
000000b0: ffcf 123d 18ac 963e 8611 95be 758f 873e
000000c0: 1ef4 b1be e244 503e 3694 803e ad48 8abe
000000d0: 7e30 f7bc 4b31 59be a4ab f5bd 3327 3cbe
000000e0: cf7f dd3e a58e 5fbe 030c 823e 24c2 57be
000000f0: fd31 91be 87b4 f53e e4b2 ba3e df9d a9be
00000100: 96df 2bbe 8dc3 913d dc90 bb3e 23fc a23e
00000110: 95f5 e5be 813e 8dbe 86ce 8fbe ca21 9b3e
00000120: ae16 ab3e 3fcc b03e 2076 8ebe f52d b4be
00000130: 8dfc b1be 194a a5be bd37 4ebe 9d0b 643e
00000140: 9211 8ebe f60c 973e 9a3c b53e c650 4b3e
00000150: f2ee b5be db36 883e ec30 86be ca9e c93e
00000160: a997 a8be bb8f aa3d e8b8 93be 444b 873e
00000170: d888 a0be 6af0 9abe fc58 613e af23 c83e
00000180: 14f1 4f3e 47a0 393d 9862 acbe 789e 703e
00000190: f4fa 5bbe 5836 a03e 4952 c13e e216 183f
000001a0: 5b70 52be d8dc 4abe 5648 4f3e 9d9e 8ebe
000001b0: 3ac8 94bd 2485 8b3e 893a 87be f1aa 553e
0.07025278 -0.565029 0.4082831 -0.17837295 0.21661659 -0.17180225 0.32936126 -0.38574523
0.22673702 -0.29502967 -0.36571568 -0.25423247 0.25540757 0.2759902 0.29860723 0.072823934
0.30284497 -0.21688603 0.16720577 0.43509322 -0.32622096 -0.38382268 0.15867631 0.26991555
-0.18701743 0.107861824 -0.14790885 0.36123508 0.3225337 0.3009057 -0.24889688 0.2413936
-0.4290391 0.16940053 0.4544313 0.19237779 -0.35149252 -0.39546832 0.28355405 0.36464083
0.39139727 -0.10626302 -0.28476593 -0.16269529 0.03584289 0.29428172 -0.29114932 0.26476637
-0.3475656 0.20338777 0.25113076 -0.27008572 -0.03017449 -0.2121021 -0.119956285 -0.18374328
0.43261573 -0.21831758 0.2539979 -0.21070153 -0.2835845 0.47989294 0.36464608 -0.3312826
-0.1678451 0.071173765 0.36633956 0.3183299 -0.44913927 -0.2758675 -0.28087252 0.30299217
0.3341574 0.34530827 -0.27824497 -0.35191312 -0.34762993 -0.32283095 -0.2013845 0.22270055
-0.2774778 0.29502076 0.35397798 0.19855031 -0.35533863 0.2660435 -0.262092 0.3937896
-0.32928208 0.08328196 -0.2885201 0.2642461 -0.31354403 -0.30261546 0.22006601 0.39089724
0.20306808 0.045318868 -0.3366897 0.23497951 -0.2148245 0.3129146 0.3775809 0.59409916
-0.20550673 -0.19810808 0.20242438 -0.27855387 -0.07264753 0.27250016 -0.26411846 0.2086599

fc3.weight f4 [112, 112]
00000000: 7898 9abe c89b c5be 9f4c c7be b9d6 b1be
00000010: efcf c13e 7498 6ebe ad1d 00bf c54d 8cbe
00000020: fa74 85be c99d 59bd 00ec 81be dfaf 6abe
00000030: 5c4b a83e 9797 913e 612c 65be 8990 6f3e
00000040: f097 c83d 16de 76be 5f01 fbbe 8c3e 443e
00000050: eae3 d7bd a617 a73e 9407 ab3e 016a ecbe
00000060: a154 72be a5fe ccbe c3fd 84bd 102d d6be
00000070: 1615 983e 3cdc 923e 3831 c73e e916 7bbb
00000080: 801c b93e be6c 893d 9c85 43be 9430 253e
00000090: 37aa b2bd be95 fbbd 2caa 523e ace5 a4be
000000a0: 6c41 b3be b3dd 3f3e c0d0 2fbc d088 a33e
000000b0: f9b7 73be cf6c 8ebe e193 56bd 43bc 3e3d
000000c0: 0499 903e 8d6c 723e c888 e6be a794 a83e
000000d0: 61de c03e a36f e03e c4d9 1dbe caa0 bf3e
000000e0: 728d 39be 574a 9c3e bed0 32be 46dc f4bd
000000f0: 0fbb 4f3e 80c3 92be c062 6fbe f517 003f
00000100: d5c2 85be 0c3b 3b3e b379 233e 9991 cbbe
00000110: 71cc c0bd dcd1 d93e 09ca 89be 38e5 92be
00000120: aa5f 1c3e 1624 e3be 2e9d c93e 6106 773e
00000130: 3a65 d53e 5f76 653e 19ef 073f 06ee 7b3e
00000140: 810d 98bc a923 74be 410c 263e 8094 eabe
00000150: b551 a53e a3c9 133e 9ff1 7cbe 5f09 42be
00000160: 022d 32be fd14 393e fda8 ac3f 40b4 dfbe
00000170: 7bd1 19be eb87 90bd 2a25 d9be c48c bebe
00000180: e241 edbe 2c5c af3e a7cd 9a3e 2b02 abbe
00000190: ec12 713c fa6e 533e b848 8fbe 1c9d b0be
000001a0: 020a a4be 4b7a 863e 1e6d 233e f57d e23e
000001b0: b783 89be c27c 33bd 6dd1 d1be b878 403e
000001c0: 5b28 913e 221b 5c3e a75e 773f 3466 733e
000001d0: 497a 2ebe e15e 513e 2b46 f73e 7086 943e
000001e0: 282a 1a3f 8d0d 403d 6ebc acbe 8ca4 593d
000001f0: 8d36 d23d e2de 28be 9246 1a3f 58f3 243d
00000200: 9cee 393d bf75 a1be 7c05 1d3f a910 93be
00000210: 225b 14bf d0eb 73be 2d4f e23d 3415 503f
00000220: 155b 35be 1cf6 0e3f 8922 593e 2f36 da3e
00000230: 793e 7bbe 88a4 55be 78cd 42bf 957e 6a3f
00000240: be15 74be 975e db3d 4749 773e c8cb 74be
00000250: e098 813e 177b e4bd 7fb4 d23d f7e7 033f
00000260: 98a0 1e3f 2d76 253b e080 053d 1dbc cebe
00000270: b832 ec3d de21 3b3f bb9e a8be 9907 8cbe
00000280: 7015 c1be 1e5d ad3d d72a 0a3f 042b 7bbf
00000290: 3f20 2d3c 9d65 c2be 2186 653e 56ca fbbe
000002a0: 2ef3 d13e d38e ddbe cc07 413f 6953 c6bc
000002b0: 0ce3 483c 0753 883e 3673 8c3e 926f 98be
000002c0: 886f 183e 43fd b5be f336 1cbe 3722 743e
000002d0: a3b5 903e b186 e0be b4ab 783e 709c 233f
000002e0: 744f 37bd ae2a 323e 25d8 68bd 2024 96be
000002f0: 034b cabe caf7 e8be 53d7 74bf 3e20 edbd
00000300: e434 8abe beb1 ad3e 7816 02be aa1c ee3e
00000310: c13b 3fbf f59c 933d 3863 d73d 698a ac3e
00000320: 9070 963d ae5c d5be 82a0 1bbf df60 803e
00000330: ea82 2a3e ee32 343e 0ef2 f63e 35e3 183f
00000340: 108d 8d3e 2426 e93d de23 fbbe fec9 fa3e
00000350: 92c3 68be 84e3 29be 923e 743e 41da cd3e
00000360: 6bee 84be dd78 08bf d52f 1bbe 6755 1fbe
00000370: beea fd3e 99df 273f faf8 263e 06ad 10bd
00000380: faf7 b63e 58a6 663e 4ec4 093e c4dc e43e
00000390: c1af 25bc df91 5a3e 6c84 473e 835c 773e
000003a0: d69b 9f3e 4161 d73d fbf3 f33e 0a4e 463e
000003b0: 0cb6 59be 0041 7cbe b303 773e 3276 6dbe
000003c0: 0464 3ebe 217b b13e 904c 003e e295 bdbe
000003d0: 2da5 b63e cbac 1ebe 9c75 94be 3836 be3e
000003e0: fa81 993e fbbb f13e 830a b03e 0f52 6d3e
000003f0: 6bf3 55be 5f5d c1bd 29e3 d3be 6dd3 acbe
-0.3019445 -0.38595414 -0.38925645 -0.34734133 0.37853953 -0.23300344 -0.5004528 -0.27403083
-0.2606581 -0.05312899 -0.25375366 -0.22918652 0.32869995 0.28435966 -0.2238021 0.2339498
0.09794605 -0.24108157 -0.49024484 0.19164485 -0.10541518 0.3263523 0.3340422 -0.46174625
-0.23665096 -0.40038028 -0.06493714 -0.41831255 0.29703587 0.2868365 0.38904738 -0.0038313216
0.36154556 0.06710194 -0.19093937 0.16131812 -0.08723872 -0.122844204 0.20572728 -0.32206476
-0.3501085 0.18736915 -0.010730922 0.31940317 -0.23800649 -0.2781739 -0.052387122 0.04656626
0.28241742 0.23674221 -0.4502623 0.32925913 0.37669662 0.43835172 -0.15415102 0.3742736
-0.18120363 0.30525467 -0.17462441 -0.11956076 0.20286201 -0.2866478 -0.23377514 0.50036556
-0.26125208 0.18284243 0.15964393 -0.3975952 -0.09413994 0.42542922 -0.26911953 -0.28690505
0.15270868 -0.4436347 0.3937773 0.24123527 0.41678792 0.22408436 0.5309921 0.24602517
-0.018561127 -0.23841728 0.16215612 -0.45816422 0.322889 0.14432387 -0.24701546 -0.18948887
-0.17399982 0.18074413 1.3489071 -0.43692207 -0.15021317 -0.07057174 -0.42411166 -0.3721677
-0.46339327 0.3425001 0.30235025 -0.33400092 0.014713984 0.20647803 -0.27985168 -0.34494865
-0.32038885 0.26265177 0.15959594 0.44236723 -0.26858303 -0.04382015 -0.40980092 0.1879605
0.283511 0.21494725 0.96628803 0.23769456 -0.17038836 0.2044635 0.4829572 0.29008818
0.60220575 0.046887923 -0.3373751 0.05313544 0.10264311 -0.16491273 0.6026393 0.040271133
0.04539357 -0.31535146 0.61336493 -0.28723648 -0.5795156 -0.23820424 0.11050258 0.81282353
-0.17710526 0.55844283 0.2120458 0.42619464 -0.2453555 -0.20863545 -0.7609477 0.915994
-0.23836419 0.10711401 0.24149047 -0.23905861 0.25311947 -0.1115629 0.10288333 0.51525825
0.61963797 0.002524744 0.032593608 -0.40377894 0.11533111 0.7309855 -0.32933602 -0.27349547
-0.37711668 0.08465026 0.5397162 -0.9811251 0.01056677 -0.3796815 0.22414447 -0.49177808
0.41005844 -0.4327303 0.7540252 -0.024209695 0.012261163 0.26625845 0.2743165 -0.2977262
0.14886296 -0.35544786 -0.15255336 0.23841177 0.28263578 -0.4385276 0.2428425 0.6391058
-0.044753507 0.17399094 -0.056846756 -0.29324436 -0.39510354 -0.45501548 -0.9564106 -0.11578415
-0.26993477 0.3392467 -0.12703884 0.46506244 -0.7470055 0.072076716 0.10516971 0.3369935
0.07345688 -0.4167227 -0.6079179 0.25073907 0.16651502 0.17597553 0.48231548 0.5972169
0.27646685 0.11384228 -0.49050802 0.48982233 -0.22730854 -0.16590697 0.23851994 0.40205577
-0.25963148 -0.5330942 -0.15154965 -0.15559922 0.49593157 0.6557556 0.16305915 -0.035321258
0.35736066 0.22524393 0.1345379 0.4469968 -0.010112704 0.21344708 0.19484109 0.24156384
0.3117358 0.105165966 0.4764708 0.19365707 -0.21260852 -0.2463417 0.24122505 -0.23189619
-0.1859284 0.34664252 0.12529206 -0.37028414 0.35672894 -0.15495603 -0.2899598 0.3715074
0.29981977 0.4721373 0.3438302 0.23175834 -0.20893638 -0.09441637 -0.41384247 -0.33755055

fc3.bias f4 [112]
00000000: bae2 35be 02de 273e 0faf c13e 835e bebe
00000010: fcfb 5f3d 0054 2d3e 6a9b d6be 8b0e a8be
00000020: 21a4 2c3e ce4c 32be e40a 11bf 95f0 20be
00000030: 51cc 0bbe ec3c adbe b952 99be a5b9 3c3e
00000040: 4a3a 883e 2c87 e5bd e3ee b5be 1890 32be
00000050: efce 6b3e 1b44 623e 3988 f43d cb7a 8a3e
00000060: 5281 86be 3519 9b3e 7333 363c e976 0dbe
00000070: f333 aa3e ead1 cb3e bbb5 893e 5fbd ea3d
00000080: 3c30 2e3e 9d73 4cbe 450e 9d3e c317 cb3e
00000090: 1ad6 0ebd 44f8 5dbe 6f0b 313e 382b 8dbe
000000a0: 5d14 9f3e 0c1e e2be 564d 06be cbcf b03d
000000b0: d8e7 82bd b2b9 d23e 3a5a 36bd 5ff3 893d
000000c0: 0d5d 40bd 8d75 ab3e 4f2b a5be ca6f 863e
000000d0: 9d8a 95bd f624 3f3e e17e 293e 8cdc d23e
000000e0: a1cd 36be 2381 a43d edbe 19be 5eb3 8ebe
000000f0: e8c4 0ebe d894 8cbb 78b8 9fbe 6698 a13e
00000100: b5a8 9ebe 50d0 44bd ee77 48be 9a64 ec3c
00000110: 17f7 f53d d22b 9e3e 6b38 c0be a0f5 e9bc
00000120: 84d9 1b3d 47e3 8ebe 8eca a6be 384f 3a3e
00000130: 3db8 1ebe d259 953e a3ee e2bc f1b0 803e
00000140: 2769 58be b9f6 9e3e ae65 5d3e 6870 6bbe
00000150: a4ef c53e 9893 8ebe 7a09 7bbe 542f 873e
00000160: f7c9 123e 4ecd 243e 7268 383d 8a7d b0be
00000170: e5cb f1bd 2480 503e 1651 abbe 2c53 493e
00000180: 8690 9c3e b659 773e c1ae b5be 56b5 0c3e
00000190: 9ffb 18be 8e5e a2be 5183 903e 97a9 1abe
000001a0: 955c 493e 82ef ac3e f98b 873e aeef e13d
000001b0: d50f 543e 870d 5abe 3726 d63e c169 bbbe
-0.1776227 0.16393283 0.37828872 -0.37181482 0.05468367 0.16926575 -0.41915447 -0.32823595
0.16859485 -0.17412111 -0.5665724 -0.15716775 -0.1365216 -0.33835542 -0.29945925 0.18430193
0.2660697 -0.112074226 -0.3553382 -0.1743778 0.23028158 0.22096293 0.11940045 0.2704681
-0.2627054 0.3029267 0.011120665 -0.13814892 0.3324276 0.3980859 0.26896462 0.11461901
0.17010587 -0.19965978 0.3067495 0.39666566 -0.034872152 -0.21676737 0.17289518 -0.27572036
0.31070223 -0.4416355 -0.13115439 0.08633383 -0.06391877 0.411573 -0.04451964 0.067358725
-0.04696374 0.33488122 -0.32259604 0.26257163 -0.07301829 0.18666443 0.16552307 0.4118389
-0.17851879 0.080324434 -0.15014239 -0.2787122 -0.13942301 -0.0042902045 -0.31195426 0.31561583
-0.30988088 -0.048050225 -0.19577 0.028856564 0.12010019 0.30892807 -0.37543043 -0.028559506
0.038049236 -0.27907774 -0.32576412 0.18194282 -0.15499969 0.2917009 -0.027701681 0.25134996
-0.21133862 0.3104761 0.21620819 -0.22992098 0.38659394 -0.2784698 -0.24515334 0.26403296
0.14334856 0.16093943 0.04502148 -0.3447078 -0.11806468 0.20361382 -0.334603 0.19660634
0.30579013 0.24155316 -0.3548489 0.13741049 -0.14939736 -0.31712765 0.28225186 -0.15103756
0.19664223 0.3377648 0.26473978 0.110320434 0.20709164 -0.21294223 0.4182603 -0.3660412

output.weight f4 [1, 112]
00000000: ebd0 b6bc 1221 683b 889e a33b c602 47bc
00000010: ea02 0b3d 2e83 2cbc 075b 803c 5029 d339
00000020: ccdb e03b 9dcf 8dbc 71eb 30bc f816 19bc
00000030: 3d17 873b 3993 d2bc 38db eebb a6ef 27bc
00000040: ddb4 713d 028b 1a3c 3c01 ffba f6be f3bc
00000050: be46 a23c 98e2 a43c b4de 27bc 5d3a 983b
00000060: 2413 d33b 0f96 3c3c 9a4d d6bc 93ba 8dbc
00000070: 7bd3 1c3d ae07 bf3b d656 b53a a34e acbb
00000080: 82d5 663c 06a0 433b c56b fbbb 5038 bfbc
00000090: 1d82 1dbd e437 39bb 3f2c 713c 7932 f4bb
000000a0: 9522 893c 7a07 a4bb d981 8abc dd54 b23c
000000b0: 16fc d7bb 9e5e 0a3c c00f 13bd aae7 fd3b
000000c0: 149e 8cbc 7271 cb3c e27f a0bc 5ad7 323b
000000d0: f789 a6bc 9aa1 d83c 082d 1e3a 796a cb3b
000000e0: 3cd6 4bbc 30e8 a8ba f83f c5bc 542e b33a
000000f0: 3c34 6a3c a349 abbc 80b0 a3bc 1018 eabb
00000100: b00c 10bb 496d a13c 7eb6 a83b 7ce8 54bc
00000110: c23c f3bb 4a53 b73c 906c 91bc 6bf8 8ebc
00000120: 3c96 2ebb 08d1 8fbc 2445 593c 3ce3 c4bb
00000130: d157 8c3c 5444 553b 6d53 bebc bebd 233c
00000140: 9adf 1fbc c704 303d 0050 6f3c c823 893a
00000150: d803 d83c 0caf 00bc b873 863b 4399 143d
00000160: e982 30bc 80ab e43b 2733 3a3c e44e 96bb
00000170: c1e2 193c 5621 5f3c 8c7b 0f3c 3ac0 6ebc
00000180: 166f 8e3b 2a94 953c 045f bfbc 8b24 6bbb
00000190: c4f1 513c 2861 a6ba 84da bfbc 1347 aabb
000001a0: 5c60 cc3a 004a 00b8 fb4b 3fbc 802d 24bc
000001b0: 7a8d 383c b9b9 adbc 8e63 96bc cdd7 683c
-0.022316417 0.0035420102 0.0049932636 -0.012146657 0.033938326 -0.010529323 0.015668405 0.00040275836
0.0068621393 -0.017310912 -0.010798321 -0.009343855 0.0041226433 -0.025704967 -0.0072893165 -0.010250008
0.059010375 0.009432556 -0.0019455324 -0.029754143 0.019809123 0.02012758 -0.010245968 0.0046456293
0.0064414907 0.011510386 -0.02616005 -0.01730088 0.03828762 0.005829773 0.0013835083 -0.0052583977
0.01408899 0.002985002 -0.0076727592 -0.023342282 -0.038454164 -0.0028262073 0.014720022 -0.007452306
0.016740123 -0.005005774 -0.01690762 0.021768982 -0.0065913303 0.00844541 -0.035903692 0.007748564
-0.017165221 0.024834368 -0.01959223 0.0027289004 -0.020329459 0.026444245 0.0006033932 0.006207761
-0.012441214 -0.001288658 -0.024078354 0.0013670423 0.01429468 -0.020909136 -0.019981623 -0.0071439818
-0.0021980219 0.019705432 0.005148708 -0.012994882 -0.0074230144 0.022378583 -0.017751962 -0.01745244
-0.002663984 -0.017555729 0.013261113 -0.0060085338 0.017131718 0.0032541947 -0.02323314 0.0099939685
-0.009757901 0.042973306 0.014606476 0.0010462934 0.02636902 -0.007854234 0.00410315 0.036278974
-0.010773399 0.006978452 0.011364735 -0.004587041 0.009392441 0.013618788 0.008757483 -0.014572198
0.0043467386 0.018259127 -0.023360737 -0.0035879936 0.012813989 -0.001269375 -0.023419626 -0.005196461
0.0015592682 -3.0586496e-05 -0.01167583 -0.010020614 0.011264199 -0.021206724 -0.018358018 0.014211607
