model_ANNC.pth (torch, 305175 bytes, 6 tensors)

fc1.weight f4 [224, 224]
000000 52 3f c8 3d 2c 7f 9d 3c 15 eb cc 3a f1 be 1d 3e
       0.097777024 0.01922568 0.0015634025 0.1540487
000010 5c 39 e4 3c e0 d9 95 bd 4e 30 52 3d aa e7 db bd
       0.027859382 -0.07316947 0.0513156 -0.10737546
000020 f3 99 85 3d 20 a6 35 bd 27 bc 92 3e b6 0c 42 be
       0.06523504 -0.044347882 0.28659174 -0.18950161
000030 3c af 87 3d 14 88 1a 3e c3 d8 ef ba 26 d1 09 bd
       0.0662522 0.15090972 -0.0018298853 -0.033646725
000040 c4 6e 0c be 7c a7 59 3d 4e 06 32 bd 51 20 ad bd
       -0.13714129 0.05313824 -0.043463044 -0.084534295
000050 4d e6 13 be d3 39 66 3d cc d4 f7 bd b7 78 ce bd
       -0.14443322 0.05620749 -0.12101135 -0.10081618
000060 69 38 b8 3d 5e 7c ea bd 4c f9 8e bd 79 3f 1d 3d
       0.089951344 -0.114495024 -0.06981143 0.03839061
000070 1d b7 c2 bb 47 69 c8 3c da bf fe 3d 36 3e 67 bd
       -0.005942239 0.024464263 0.124389365 -0.056455813
000080 b4 32 90 3c ac 7a 50 bb b4 cf de 3d 3e 42 87 bd
       0.017602302 -0.00318114 0.1087946 -0.066044316
000090 20 c0 1a be 07 22 17 3b 8b a2 e1 bd b0 b3 70 3d
       -0.15112352 0.0023061053 -0.11017331 0.058765113
0000a0 8c 00 7a 3c 34 7f df 3c 9d c3 60 bd bc d7 fb bd
       0.015258919 0.027282335 -0.05487405 -0.122970074
0000b0 ad f3 ea bc 6c 93 85 bd 8d 3c cf 3d 2b 3d fd bc
       -0.028680647 -0.06522259 0.10118971 -0.030912956
0000c0 9e b6 27 3b 4c a8 62 bd 46 c0 32 bc 90 e7 08 bd
       0.0025591026 -0.05533628 -0.010910099 -0.03342396
0000d0 e3 ea f3 bc 44 fd b7 3d a4 00 94 bc 5f 7e 73 3c
       -0.029775089 0.089838535 -0.018066712 0.014861672
0000e0 98 36 7d 3d e6 63 a9 bc f1 94 fb bd e6 e6 7b bd
       0.061819643 -0.020677518 -0.12284268 -0.0614995
0000f0 8d ed 1a bb 5a 12 10 3d e2 dc 06 bc 9d 70 e8 3d
       -0.0023640126 0.03517375 -0.0082313735 0.11349604
000100 4c 46 2e 3d d1 cf 6c bb c1 35 94 bd af 76 59 3d
       0.04254751 -0.003613461 -0.07236815 0.0530917
000110 53 94 10 3d 68 53 92 3c ed a0 99 3c 25 40 8d bd
       0.035297703 0.017862037 0.018753493 -0.06897
000120 a4 fe 4b 3c 51 84 69 bd 84 4a 83 bd 35 5b e0 3b
       0.012450848 -0.057010952 -0.06410697 0.00684681
000130 ab fb bf 3d 83 14 d9 bd a5 b6 3d 3d 18 f9 cc 3c
       0.09374174 -0.105996154 0.04631676 0.02502112
000140 c9 46 ec bd 65 c5 c3 3b f0 db 44 bd 01 7b bb bd
       -0.11536939 0.005974459 -0.04806131 -0.091543205
000150 e9 1c b1 3d a1 29 24 bd c6 cd 4b 3d 22 31 8e 39
       0.08648092 -0.040078763 0.049756788 0.00027120957
000160 75 9e 77 bd bc a5 0e 3c 51 f6 f0 3d f1 65 ab bc
       -0.06045385 0.008706506 0.11765731 -0.020922633
000170 a2 9d 18 bd dd b3 64 bd 35 9b ac bd 54 4b c1 3d
       -0.037259705 -0.055835593 -0.08428041 0.09438196
000180 03 6a 42 bd 24 5a 67 bd fa 82 15 be e5 4c 3c bd
       -0.047464382 -0.05648245 -0.14600745 -0.04597177
000190 02 49 e2 bd c0 fd d1 bd 72 b6 4f 3c b2 06 a9 bd
       -0.110490814 -0.10253477 0.012677776 -0.0825323
0001a0 88 ef a9 bd 1d 14 ec bd a2 70 5c 3d e0 48 80 3d
       -0.0829764 -0.11527274 0.053818353 0.062639
0001b0 a0 74 81 3c 69 20 16 be 0e e3 81 bc 30 39 e1 bc
       0.015802681 -0.14660801 -0.015855338 -0.02749309
0001c0 44 e6 17 bc 70 ab 9d bb fd 49 b1 bd 32 7b 4c be
       -0.009271208 -0.0048116967 -0.0865669 -0.1996887
0001d0 73 91 00 3e e0 7e a1 3d b2 09 74 bd 30 7a 1d 3d
       0.12555484 0.078855276 -0.05957956 0.038446605
0001e0 12 e2 14 bc d5 dc b6 3b 1c cf 84 3d 2e c4 23 3d
       -0.0090871025 0.0055805244 0.064848155 0.039982013
0001f0 c7 e8 90 bd f4 dd 18 3d b8 59 d6 3a ee 03 3f bd
       -0.07075649 0.037321046 0.0016353643 -0.046634607
000200 9f 74 f9 bb c5 f4 8b 3d fd 05 4f bd ea 57 5d 3d
       -0.0076127793 0.068337955 -0.05054282 0.05403892
000210 f4 dc 8c bd 85 7d 23 bd be a3 b1 3c e7 7f c4 bd
       -0.06878081 -0.039914627 0.021684524 -0.09594708
000220 5e 48 86 3d f0 a4 f1 3c ec 01 88 3d b4 7a 48 3d
       0.06556772 0.029497594 0.066409916 0.048945144
000230 f0 da 81 bd 4a 28 68 3c 2b 47 32 3d 2d 6d 7d bb
       -0.06340587 0.014169762 0.043524902 -0.003866981
000240 50 1a f2 3d ca 09 28 bb ab 17 b3 3d 4f 69 7e 3d
       0.11821425 -0.00256406 0.08744749 0.06211215
000250 9a ce 0e 3e 57 e1 d2 bb 90 3b 28 bd 22 dc 3c 3d
       0.13946 -0.006435554 -0.04107243 0.046108373
000260 f0 42 1d 3d 1a 50 35 bd a6 76 ba 3d c0 1f 37 bd
       0.038393915 -0.044265844 0.09104662 -0.044708014
000270 cd ec 53 3d 90 ef 22 bc 6a 1a 9e 3d 61 90 80 3c
       0.051739503 -0.009944811 0.07719882 0.015693845
000280 cf 90 2a 3d 3e 54 cc 3c 75 fd 11 3d 4d ae eb bc
       0.041642006 0.024942514 0.035642106 -0.028769637
000290 05 38 5d 3d 09 0c 9a bd 25 1c 11 3d 69 54 25 3c
       0.054008503 -0.07521827 0.03542723 0.010090926
0002a0 c3 98 7a 3b e1 b4 c1 bd 08 39 87 3d d6 de 7f 3c
       0.0038238026 -0.09458328 0.06602675 0.015617093
0002b0 d7 6b 08 3d 9e 35 36 3c 1c 7d f6 bc 14 86 83 3c
       0.03330597 0.011121182 -0.030088954 0.016055144
0002c0 42 d7 49 3c 06 d4 c3 3c a3 37 43 bc 1d d8 ec bd
       0.012319388 0.023904812 -0.01191512 -0.11564658
0002d0 16 9c be bc 4a a1 a1 bc 99 dd 4f 3d 04 37 55 bd
       -0.023267787 -0.019730229 0.05074844 -0.05205442
0002e0 c3 bf b0 3d b1 44 dc bd f2 09 0d be 1e bc 3f bc
       0.08630326 -0.10755289 -0.13773325 -0.0117025655
0002f0 4f c2 38 3d 23 5f 9e bd 67 85 b0 bc fb 41 80 3d
       0.045107182 -0.0773299 -0.021547986 0.06262585
000300 6f 4d ed 3c c4 e7 86 bd fa 15 d6 3d 43 5d 1e 3c
       0.028967587 -0.065871745 0.104534104 0.00966579
000310 8f 19 b5 bd df 97 9b bd c6 9a 77 bd 18 1b 00 39
       -0.088427655 -0.075973265 -0.060450338 0.00012217124
000320 00 9d 8b 3c 22 58 e0 3d f2 5a 83 bc 2c 72 07 3d
       0.017042637 0.1095431 -0.016034577 0.033067867
000330 61 e6 38 bd 04 86 56 3d 7e 34 4e bd 01 fd 25 bc
       -0.04514158 0.0523739 -0.05034303 -0.010131122
000340 4f 02 5e 3c b5 46 94 3d 4a 5a 42 3d e9 57 96 3d
       0.013550355 0.07240049 0.047449388 0.07340986
000350 66 0d 05 bb 55 0b 40 3d 03 58 a4 3d dc 81 85 3c
       -0.0020302176 0.046885807 0.080245994 0.016297273
000360 f4 93 cf bd 11 3e e3 bc c9 18 f0 3c b3 89 df 3c
       -0.10135642 -0.027739557 0.029308693 0.02728734
000370 a5 67 ac bd 9e 40 b8 bd eb 7e 21 bd aa 9f 79 bd
       -0.08418206 -0.089967 -0.03942768 -0.060943283
000380 71 4a fd 3d a8 36 75 3d 01 58 5c 3d 60 e2 c1 ba
       0.12367714 0.059866577 0.053794865 -0.0014792196
000390 ce f1 a1 bb 53 bf 1a bd 30 78 e0 3d c2 90 91 bc
       -0.0049421554 -0.037780117 0.10960424 -0.017769221
0003a0 c2 30 b7 3c 4d 84 fd bc 64 b0 99 bd 2a 9c 83 bd
       0.022362117 -0.030946875 -0.07504347 -0.0642627
0003b0 d2 99 07 3c 5e e8 96 3d 53 79 e7 bc fd 1c 82 bc
       0.00827642 0.07368539 -0.028256094 -0.015882963
0003c0 cf c7 29 3c 2e c2 1e bc cf 4e b5 3d a9 2b 17 3d
       0.0103625795 -0.009689851 0.08852922 0.036906872
0003d0 2d 38 ac bc f4 f2 c9 bd 50 aa fa 3b 53 ba 8e 3d
       -0.02102288 -0.09860793 0.0076496974 0.06969132
0003e0 db a8 8a 3d 37 7f a8 bd 09 c7 cd 3b 78 43 02 3e
       0.06770488 -0.08227389 0.0062798304 0.1272105
0003f0 38 54 c4 3c e4 38 93 3c 38 47 ca 3c 8a 0f 3a 3d
       0.02396594 0.017971464 0.024692163 0.045424975

fc1.bias f4 [224]
000000 ae b0 83 3b b0 a4 8e bd 2d b5 92 bd 88 56 84 3d
       0.0040188646 -0.069650054 -0.07163463 0.06461817
000010 2b 28 11 bd 9b 89 8a bd d7 32 61 3d b6 43 8a bd
       -0.035438698 -0.067645274 0.054980125 -0.06751196
000020 9d 83 9b bd 8e 30 52 bd ac 00 79 bc b0 4a 85 3d
       -0.075934626 -0.051315837 -0.015197914 0.06508386
000030 c1 18 8b 3d 5a 12 8c bb 66 29 f8 bc 6a e9 0a 3d
       0.06791831 -0.0042746486 -0.030293178 0.033914007
000040 03 e4 86 bd 88 26 7b 3d 40 31 92 bc 66 50 e1 bc
       -0.065864585 0.061316043 -0.01784575 -0.027504157
000050 09 44 19 bd e7 7f 74 3c 0a 2d 93 bb bc 58 45 bd
       -0.0374184 0.014923072 -0.004491453 -0.048180327
000060 9a 03 1c bd 28 d9 b5 3c 8c aa 9f 3d 4b 00 7f 3d
       -0.038089372 0.022198275 0.07796201 0.06225614
000070 57 ee 86 3d ad 0b 69 3b f0 59 36 3d 70 83 06 3d
       0.065884285 0.0035559938 0.044519365 0.032840192
000080 8c 91 72 bd 50 02 26 3c c9 14 59 3d 39 00 56 3d
       -0.059220836 0.010132387 0.052998338 0.052246306
000090 d5 bd 97 3d ff 4c 67 3c d7 72 e8 3c 0c 6c 2b be
       0.074092545 0.014117478 0.028375072 -0.16740435
0000a0 7a 39 96 bc ec 0e e9 bc 67 e8 6e 3d bb 8b c6 bd
       -0.018337954 -0.028449498 0.058327105 -0.0969462
0000b0 ec 3f 4e 3d 28 f2 5b 3c 78 4d 58 3d 70 5d fb bc
       0.05035393 0.013424434 0.052808255 -0.030684203
0000c0 9c 9e 8c bc 96 e9 ec 3c 83 1e c3 bd cd b4 74 b9
       -0.017165475 0.028919976 -0.09527304 -0.00023337007
0000d0 f9 72 56 bc 2f c5 2c bd 17 86 5f bd 7c 7d 32 3d
       -0.013088935 -0.042180236 -0.054571237 0.043576702
0000e0 85 9b 5b bd 60 fd 62 bd 3e c1 a8 bd a6 32 b2 bd
       -0.05361511 -0.05541742 -0.08239983 -0.08701067
0000f0 4c fe 8e 3c 3e c5 f5 3c cd 30 84 3c e2 31 16 bd
       0.017455243 0.030001279 0.016136551 -0.036668666
000100 24 c0 96 bd 1f 21 3c bb 21 cc ca 3b 77 1f 02 3d
       -0.07360867 -0.0028706265 0.006188885 0.03176829
000110 e7 39 a7 3c 26 be da bd 36 28 98 bd cf a6 80 3d
       0.020413352 -0.10680799 -0.07429545 0.06281816
000120 e0 f2 b6 3c 30 3f 19 3c c9 53 2d bd 28 e1 ba bd
       0.022332609 0.009353444 -0.042316232 -0.091249764
000130 19 ef 1a 3d 8c 88 9d bc 13 28 d3 bd c2 22 40 3d
       0.037825678 -0.01923015 -0.10310378 0.046908148
000140 bb 00 a3 bd bb c3 39 3d 40 85 ce bc 35 65 42 bd
       -0.07959124 0.04535268 -0.025210023 -0.0474598
000150 75 20 5e 3c db 16 14 bc 09 90 32 3d 7c 31 9b 3c
       0.013557543 -0.009038652 0.043594394 0.018944494
000160 15 d4 1e bb 90 7b 52 3d f6 0a b3 3c 7f a5 ba bb
       -0.0024235297 0.05138737 0.021855813 -0.005695998
000170 85 0d a7 3d 1f 9a 58 3c b7 8e c4 3c e1 28 73 bd
       0.081568755 0.013220339 0.023993833 -0.059365157
000180 63 f2 33 3d ca f7 21 bc 4e ba 9b 3d f4 5b ad 3d
       0.04393233 -0.009885738 0.07603894 0.08464804
000190 60 85 b8 3c fa 79 6a 3d e4 44 68 bc d0 27 c7 3c
       0.022524536 0.057245232 -0.014176581 0.024310976
0001a0 19 9a d7 bc 74 af 6b 3c 34 7d 7b bd 95 e8 7e 3d
       -0.026318597 0.014385093 -0.0613987 0.062233526
0001b0 c1 20 3b bb e5 03 a0 3d 1d 14 88 bd 9c 53 8d bd
       -0.0028553458 0.07813243 -0.06644461 -0.06900713
0001c0 b6 07 33 ba a5 60 f3 3c 9f e6 5c 3d 23 a9 ee bc
       -0.0006829457 0.02970917 0.053930875 -0.029133385
0001d0 81 dc d1 3c 18 ac 41 3d 05 ba 05 bd 0c c3 cc bc
       0.02561784 0.047283262 -0.032648105 -0.02499535
0001e0 ae 8e c9 3c d7 ae 9b bd bb ab dc bd 6a ad 2b bd
       0.024604168 -0.076017074 -0.107749425 -0.041913427
0001f0 7b cf fc 3a 7d 64 31 3d 3f c8 70 3d 7f c9 ce bd
       0.0019287908 0.043308724 0.05878472 -0.10097026
000200 e7 a4 62 3c 21 11 9c 3d 5f 6f c9 3d 96 25 82 bc
       0.013833261 0.076204546 0.098356955 -0.015887063
000210 9b 6c a0 3d 4a a0 c2 3b 49 c1 de 3a 72 e5 c7 3c
       0.07833215 0.005939518 0.0016994859 0.0244014
000220 eb 03 82 3d 5d e0 93 3c 2d 42 1e 3d 46 89 d8 3d
       0.063484035 0.01805132 0.03863733 0.10573058
000230 91 fb ca 3d 69 2a 9b 3d d9 9e ed 3b 81 88 ec 3c
       0.09911264 0.075764485 0.007251602 0.028873684
000240 ef 44 92 bd ae 9f b5 3d 2f b7 73 bd a8 b2 b9 bd
       -0.07142054 0.08868347 -0.05950087 -0.09067279
000250 1a 50 f9 3c 64 f5 1e bd e5 1f 93 bd a9 9a 17 3d
       0.030433703 -0.03880824 -0.07183818 0.03701273
000260 da ac 09 bd 54 41 13 bc e1 8e 8b bd 57 4e c3 3b
       -0.03361211 -0.008987743 -0.06814361 0.0059602666
000270 af 05 bc 3c 6b b4 a1 3d 7e 27 34 3d 8c 98 b8 3c
       0.022951929 0.0789574 0.043982975 0.022533678
000280 f3 0c 66 3d b1 cd 85 bc a2 87 be 3b 88 41 ce 3d
       0.056164693 -0.016333433 0.0058145085 0.10071093
000290 5b 82 56 bd a4 aa 21 bd 56 82 8b bd d8 49 55 bd
       -0.05237041 -0.039469376 -0.06811969 -0.052072376
0002a0 85 22 80 3d 44 fa 07 3d 5c d5 4b bd d4 43 1d 3d
       0.06256584 0.033197656 -0.049764022 0.038394764
0002b0 ff 8b 13 bb 47 a0 1e 3c 55 a6 b9 3d f3 db 07 3d
       -0.0022513864 0.009681768 0.090649284 0.033168744
0002c0 42 96 a3 3c 66 07 a3 bc ae e7 dd bc 69 20 2f bd
       0.01996911 -0.019900989 -0.027088013 -0.042755518
0002d0 01 53 50 3b 2a c7 10 bd 80 7b 26 3b 60 f3 76 bd
       0.0031787755 -0.035346188 0.0025403202 -0.060290694
0002e0 f4 bd 8c 3d 2f 32 be bc 0a b2 f1 3c 12 38 b0 3b
       0.06872168 -0.023217289 0.029503841 0.005377778
0002f0 64 01 26 bd 79 8e 2b bd 9e 87 9e 3d 9f 09 a5 bc
       -0.04052867 -0.04188392 0.07740711 -0.02014619
000300 bb c5 f9 bc 31 13 06 bd 2b 8a 69 3c cd e7 5f 3d
       -0.030489793 -0.032733146 0.014254133 0.05466442
000310 c8 9b 1c bb dc 4a d0 3c d4 48 89 bc 41 dc 88 3d
       -0.0023896564 0.02542632 -0.01675836 0.06682635
000320 24 c5 41 3d 99 d1 93 bd b0 16 fc bb 1d 3a c9 bc
       0.04730715 -0.07217712 -0.0076931342 -0.024563843
000330 5c 90 3a bd f3 ba 8c 3d 7f b9 73 3d 72 41 3b 3c
       -0.045547828 0.06871595 0.059503075 0.011429178
000340 d2 87 91 3c 46 5b aa bc 89 73 4c bd 1c f1 8d bd
       0.01776496 -0.020795476 -0.04991487 -0.069307536
000350 f9 f3 83 3d 0d 89 8a 3c c4 17 81 bc c3 6c 95 bd
       0.064430185 0.016911054 -0.015758403 -0.07296135
000360 57 51 fe 3c 69 43 c1 3d 8e fc c4 3c 42 07 07 3e
       0.031044645 0.094366856 0.024046209 0.13186362
000370 05 a2 d6 3c fd d5 11 be eb 6c 81 3d 0c 4f 15 3d
       0.026200304 -0.14241786 0.063196026 0.036452338

fc2.weight f4 [112, 224]
000000 07 dd 4c 3d 64 b9 64 bd 91 73 dc 3d 31 1a a3 bd
       0.050015476 -0.055840865 0.1076423 -0.0796398
000010 f9 8e df 3d 9f 9f 8a bd bc 00 2d bd 98 c2 67 bd
       0.10915942 -0.067687266 -0.04223703 -0.056582063
000020 4f f9 38 bd cc 7f 93 bc 99 8d 86 3d 48 26 86 bd
       -0.045159634 -0.018005274 0.06569976 -0.0655027
000030 f1 1c 3b 3c 9a 11 28 bd 7a 48 89 3d dc 20 8e bc
       0.011420474 -0.04103241 0.06703277 -0.017349653
000040 7f 52 8e bd 82 c3 95 3d ab a2 a1 bb 40 b7 f2 3d
       -0.06949329 0.07312681 -0.0049327216 0.118513584
000050 02 84 f1 3c 46 7a da 3c 12 b6 af bd 8c 78 7c bd
       0.029481892 0.026669633 -0.08579649 -0.0616384
000060 14 7d cd bc 51 14 99 3d d4 8f b3 3d 25 6e 82 3d
       -0.025084056 0.07474578 0.087676674 0.06368665
000070 bd 66 bc bc 8d df 72 bc 3f c6 f3 3d 54 d2 94 3d
       -0.022998208 -0.0148238065 0.11903047 0.072666794
000080 f8 53 0a bd 8e 81 48 bc 6d aa 8b bd af a3 e8 3d
       -0.033771485 -0.0122379195 -0.068196155 0.11359345
000090 33 54 95 3d b6 58 84 3d 9b fa 4c 3b 87 2e 74 bc
       0.0729145 0.06462233 0.0031277302 -0.014903671
0000a0 af 52 de 3c 3a 2b 07 3e 10 f5 93 bd e0 d4 0b bd
       0.027139036 0.13200083 -0.07224476 -0.03413856
0000b0 57 e1 34 3c 1a d4 6a bc 82 4f bc bd 34 f6 7e 3c
       0.011040053 -0.0143327955 -0.091948524 0.015561629
0000c0 5e 6c 19 be 67 70 3e 3d 77 78 86 bd 2b 81 91 3d
       -0.14982745 0.046493914 -0.065659456 0.07104715
0000d0 8c da b1 3d 00 74 94 3d a4 5f d3 bd 5e 06 c2 3d
       0.08684263 0.07248688 -0.103209764 0.09473871
0000e0 fd 72 ba bc 4d 14 f6 bd 90 62 dc bc 7a 11 ec 3d
       -0.022759909 -0.12015591 -0.026902467 0.11526771
0000f0 d0 6a a5 3d c5 d6 65 bc af 44 29 3c 88 ac 82 3c
       0.080770135 -0.014028256 0.010331317 0.01595141
000100 44 d1 73 bd 86 6f 8e 3d 73 ad d4 3d 5e db 41 bc
       -0.059525743 0.06954865 0.10384645 -0.011832086
000110 1a ce e6 bd 1d 8d 1d 3e 2a b8 ce bd ac c8 08 3e
       -0.112697795 0.15385862 -0.1009372 0.133578
000120 3d 78 e3 3c 8b 77 99 3d 1a 37 05 be d9 fd e4 3d
       0.027767295 0.07493504 -0.13009301 0.1118123
000130 76 00 b0 3c 9c 3c df bc 4b 73 47 be 77 11 e5 bb
       0.021484595 -0.02725058 -0.19477575 -0.0069906074
000140 db ac 29 3b ad ca a6 bd 83 20 f0 3d 55 1e a2 3d
       0.0025890383 -0.08144126 0.11724951 0.079159416
000150 08 44 06 be 68 b1 89 3d fc 48 00 bd e4 bd 1b 3d
       -0.1311189 0.06723291 -0.031319603 0.03802289
000160 c2 19 ae 3d 68 f7 0a bd 93 fb 9d 3d 5c a9 c1 bd
       0.08501007 -0.03392735 0.077139996 -0.09456131
000170 65 f5 2b 3e 63 97 00 be 38 83 0e 3e 45 b4 72 bd
       0.1679283 -0.1255775 0.13917243 -0.05925395
000180 e1 8a 10 bd 91 6c de bd a4 d9 85 bc 5d 7c b5 bc
       -0.035288695 -0.10860551 -0.01633913 -0.022154028
000190 ab d5 f4 bb ff 48 e1 bd 93 a2 a9 bc 25 00 13 3e
       -0.0074717603 -0.11000251 -0.020707404 0.14355524
0001a0 4b c1 6c 3c de bd 63 3c d6 24 9a bd 3f d3 a5 3b
       0.0144503815 0.013900248 -0.07526557 0.005060583
0001b0 a9 32 db bd 53 3c cf 3d 8d d6 03 3e c8 0f 10 be
       -0.10703022 0.10118928 0.12874813 -0.1406852
0001c0 a9 26 7c bd 3f 48 81 3d 77 40 37 3d ec b2 e9 bd
       -0.061560307 0.06312608 0.044739213 -0.1141108
0001d0 bc dd e7 3b 12 17 e3 bd f9 2d 48 3d ab 54 cf 3d
       0.0070759933 -0.11088385 0.048871968 0.10123571
0001e0 e1 2a df 3c 0a 33 ef bd 59 3c cd bb ac 32 ac 3d
       0.027242126 -0.11679657 -0.0062632975 0.084081024
0001f0 17 bb dc bd 35 f7 3e bd 99 a8 bc 3b 8b 9a 85 bd
       -0.10777872 -0.046622474 0.005757403 -0.06523617
000200 e2 66 10 bd c1 6b df 3d d1 b1 1c bd 0d 7e 9f bc
       -0.035254367 0.10909224 -0.038255516 -0.019469285
000210 87 b2 0e 3e 22 a9 84 3d 95 80 25 be 70 60 fa bc
       0.1393529 0.06477572 -0.16162331 -0.030563563
000220 57 84 f6 3d 7b 35 53 bc c0 0b a1 bb 0a 3c 00 be
       0.120369606 -0.012891169 -0.004914731 -0.12522903
000230 17 9f e3 3d 3d d2 bc bc 54 d4 02 bd a6 f2 df bd
       0.11114328 -0.023049468 -0.031940773 -0.109349534
000240 fd ed 3b 3c da 4d 0c bd 05 c4 5e 3d 9c e5 16 3e
       0.011470315 -0.034253933 0.054386158 0.14736027
000250 37 22 8e 3d ef 79 99 bd f3 a8 01 3e 4b d6 bd 3d
       0.0694012 -0.0749396 0.12662105 0.09269389
000260 a6 77 99 bd 5e c8 d7 3d 54 31 8a 3d 0c 1e 95 bd
       -0.07493524 0.10536264 0.0674769 -0.072811216
000270 67 ad e8 3c ed a8 9f bd 64 29 d0 3d 4d a6 f3 3c
       0.028402997 -0.07795892 0.10164145 0.029742384
000280 cf 9c f0 bd c6 e5 79 bc c1 b8 43 3d c4 8b 49 3d
       -0.11748659 -0.015252536 0.047783617 0.049205557
000290 1e 7d 15 be 1f ca 8b 3d 88 5c 2b bd fe 2b 9e bd
       -0.1459851 0.06825661 -0.04183629 -0.077232346
0002a0 c5 5d ae 3d bd 36 c8 bd f1 1b 25 be 4e 5b 20 3d
       0.08513979 -0.097760655 -0.1612394 0.039149575
0002b0 0f af ef 3d e9 9e 0f be 1a 2a d5 3d 80 6b 9d 3d
       0.11703312 -0.14025463 0.10408421 0.076865196
0002c0 d4 f8 d4 3c ef bf 79 bc f0 5a 8a bd 69 9d 21 3c
       0.025997557 -0.015243514 -0.06755626 0.00986419
0002d0 83 aa 74 3d 6d 6e 3c 3c 27 ac c7 3d 51 fc d4 3d
       0.059732925 0.011500937 0.09749632 0.10399688
0002e0 d5 5d 3a 3d 0f 65 06 3e 7c 13 fb 3d 33 c7 9d 3d
       0.04549964 0.13124488 0.12259576 0.0770401
0002f0 09 fa 21 3c 1f 5b 86 bd d4 73 06 bd 90 b8 8e bd
       0.009886273 -0.06560349 -0.032825306 -0.06968796
000300 68 d0 2b 3d 44 8f b3 3d 53 71 f0 3d 8a 73 ee bd
       0.0419468 0.0876756 0.11740365 -0.11643131
000310 a3 b2 f3 3d b8 14 ad bd ac 20 01 3c f0 24 a8 bc
       0.118993066 -0.084512174 0.007881325 -0.020525426
000320 a2 c5 b8 bd 28 0f 85 bb b5 55 c3 3b 5a 1f 72 bd
       -0.090220705 -0.0040606447 0.005961145 -0.05911193
000330 5a 55 f1 3b 65 92 d8 3d 02 64 08 bd 10 18 1e be
       0.007364911 0.105747975 -0.0332985 -0.15438867
000340 c2 d2 5f 3d b9 6f f3 bc b5 ef ae bd 76 41 0c bd
       0.054644354 -0.02971636 -0.08541814 -0.034242116
000350 81 02 c0 bd 99 e7 37 bd cc 8b 9b bd 44 5b 90 3d
       -0.093754776 -0.044898603 -0.075950235 0.070486575
000360 c9 ca c7 3b b2 c0 be bd b4 34 7a 3d c4 7f b2 3d
       0.006097172 -0.093140975 0.061085418 0.087157756
000370 86 a4 09 3e b1 d5 0d be b9 f0 0b 3e 7f bc 90 bd
       0.13441667 -0.13851048 0.13666047 -0.07067203
000380 e0 fd ec 3d a1 11 43 bd 5a 48 d2 3c 85 7f a0 ba
       0.1157186 -0.047624234 0.025669266 -0.0012245035
000390 1b 25 67 3d 2c 61 19 bd 73 5f a9 bd 23 69 c1 3d
       0.05643187 -0.037446186 -0.082701586 0.09443881
0003a0 4d 25 3d 3c df 67 82 bd 66 87 fb bd 81 59 8b 3d
       0.011544538 -0.06367468 -0.122816846 0.06804181
0003b0 f4 03 36 3d a2 ee e6 bd 89 cf 35 bc 26 7f f2 bd
       0.044437364 -0.11275984 -0.0110968435 -0.11840658
0003c0 58 67 9e 3d e8 ed b9 bd 8a fb a9 3d 41 14 9b bc
       0.07734555 -0.0907858 0.082999304 -0.018930556
0003d0 d2 ee d7 bc 38 99 66 bd 2f 61 5f 3b ea 18 be bd
       -0.026358996 -0.056298465 0.0034085026 -0.09282096
0003e0 4e 34 89 3c 89 c1 b3 bd 85 38 ec 3d d9 27 b7 3d
       0.016748574 -0.08777148 0.11534218 0.08943147
0003f0 92 43 d2 bd e1 74 cd bd 75 40 09 3d 07 ab b3 3d
       -0.10266794 -0.100320585 0.033508737 0.08772855

fc2.bias f4 [112]
000000 68 dd 9a 3d 4b 31 87 3b 0e d2 89 bd a2 96 90 3d
       0.07561761 0.004125749 -0.06729518 0.07059981
000010 9b bc a1 bc 8a b4 71 bd 69 f8 99 bd 27 b8 b5 3c
       -0.019743254 -0.059010066 -0.075180836 0.022182537
000020 19 65 b7 bc 4b 37 61 bd cf ff 29 bb 47 dd 85 3d
       -0.022387074 -0.054984372 -0.0025939827 0.06536346
000030 6d b5 a0 bc 5c b3 e5 3b 80 b0 e3 bc c0 03 27 3c
       -0.01961776 0.0070099067 -0.027794123 0.010193765
000040 02 f1 ad bd 08 bc d8 bb 83 c3 e3 3c b7 6a 07 bd
       -0.08493234 -0.006614212 0.027803188 -0.033060756
000050 66 83 85 3d bf 59 c2 3c 04 18 85 bd 1c 3c 70 3d
       0.06519203 0.023724435 -0.06498721 0.058651075
000060 5b c1 52 bc 35 c4 27 3c 98 a0 7c 3d 57 3f b5 3b
       -0.012863482 0.0102396505 0.06167659 0.0055312323
000070 44 19 10 3d dc 8c ce bb 3d 4a 4f bd a9 b8 d2 3c
       0.035180345 -0.006303413 -0.05060791 0.025722818
000080 dc 69 89 3d 13 9c 42 3c b7 0a af 3b a2 53 02 3d
       0.06709644 0.011878031 0.0053418535 0.03181804
000090 a1 8c a6 bc f6 83 34 bd c7 3e c3 3d 13 8f 42 bd
       -0.020330729 -0.04407116 0.09533458 -0.047499727
0000a0 c1 63 34 3d 84 8a 1c bd 70 37 82 3d b7 69 40 3d
       0.044040445 -0.038218036 0.0635823 0.046975818
0000b0 13 f0 96 bd 88 86 39 3d a5 89 95 bd da a6 9a 3c
       -0.07370009 0.045294315 -0.07301644 0.01887839
0000c0 39 ef 18 3c fa 9d f7 bc c3 36 38 3c 49 72 0b 3c
       0.009334379 -0.030226696 0.011243525 0.008511134
0000d0 a2 99 18 3a b3 df 1b bb c9 c5 a3 3c a4 99 bf bc
       0.0005821233 -0.0023784458 0.019991772 -0.023388691
0000e0 ec f0 5c bd 23 1b 59 bd f3 70 95 3d ed d4 d2 bc
       -0.0539407 -0.053004395 0.07296934 -0.025736297
0000f0 4f e9 8c 3d 73 66 23 bc 6c 34 10 bc 69 c5 c0 3c
       0.068804376 -0.009973156 -0.008801561 0.023531632
000100 61 a9 43 3d 94 7f e9 3d 89 2a 0a 3c 4a f8 f5 bb
       0.047768954 0.11401287 0.008432993 -0.007506405
000110 72 b6 10 bd f7 94 4e 3d 9d f6 9c bc c7 48 6f 3c
       -0.035330243 0.050435033 -0.019160563 0.014604754
000120 c8 40 df 3c d1 4e 96 bc 6a 87 3d bd 54 b2 c3 bb
       0.02725257 -0.01834813 -0.04627172 -0.005972186
000130 e3 9f c0 bb 27 53 ba bc 44 ff 05 3d 09 29 25 3d
       -0.005878435 -0.022744728 0.032714143 0.040322337
000140 08 5f 18 bd da 1d 43 bd 0a bf 07 3b 13 6c 2a 3b
       -0.037200004 -0.04763589 0.0020713233 0.0026004359
000150 bc 6d a0 3d c0 47 4e bd 0f 55 32 3d 59 37 c2 3d
       0.0783343 -0.050361395 0.04353815 0.09483213
000160 89 70 23 bc 94 c9 a0 3d 8b b1 5c 3c af 1a 09 bd
       -0.009975561 0.07850948 0.013470064 -0.033472713
000170 18 cd 07 3b ba f2 53 bc 69 5c 53 bd eb 22 01 3b
       0.002072161 -0.0129362885 -0.0516018 0.001970465
000180 66 b1 c9 3a db f0 f2 3c a0 ab a8 3c 33 78 06 bd
       0.0015387952 0.029655864 0.02058965 -0.032829475
000190 02 f4 60 3d 6c e5 7d 3d ee c0 0e 3d d4 a6 d0 bc
       0.054920204 0.061986372 0.03485196 -0.025470175
0001a0 31 5f 90 3c 85 92 55 bd 0c f3 be bd fd db 90 3d
       0.017623516 -0.052141685 -0.09323701 0.070732094
0001b0 0b 8f 9b bd 96 a4 9d bc 6c 18 5f bd 3a 6f a9 3d
       -0.07595643 -0.01924352 -0.05446665 0.08273168

output.weight f4 [2, 112]
000000 36 88 ec 3d a2 91 b6 3c 10 ef d3 3c cd aa 43 bd
       0.11549418 0.02228624 0.02587083 -0.04777031
000010 50 c8 3a bd 5b e1 bf bc d2 dc 8b 3d 45 8d dd 3c
       -0.04560119 -0.023422888 0.068292275 0.027044902
000020 e3 27 94 bd a8 fe cf bc ef 5d 90 bd ec 85 77 bd
       -0.0723417 -0.025389984 -0.070491664 -0.060430452
000030 30 23 7b 3b b7 8d e0 3c bb 01 69 3d e4 02 95 3d
       0.0038320534 0.027411325 0.056886416 0.07275942
000040 50 40 27 bd 55 8f 18 bd e9 f5 91 bd 4f 97 08 bc
       -0.040832818 -0.037246067 -0.07126982 -0.008336856
000050 19 34 f0 bd 9e ac 7f bd 4a 32 7c 3c 0a c8 0c 3d
       -0.11728687 -0.06242048 0.015392849 0.03437046
000060 59 8a ab bc 27 66 61 3c dd 9a 17 bd 8b a3 b8 bd
       -0.020939993 0.013757265 -0.037012924 -0.09015568
000070 ed 82 33 3d d3 46 83 3d 5e d3 2f 3d 4c 7f b8 bc
       0.043826032 0.06409993 0.042926185 -0.022521637
000080 15 47 d8 bd 8e 66 e9 3b 45 c2 9f 3c b5 35 68 3d
       -0.10560433 0.007122821 0.019501815 0.056691844
000090 04 b2 52 bd 3f 20 3d bd 98 c5 8d b8 2a 72 66 bd
       -0.0514393 -0.04617333 -6.7602086e-05 -0.05626122
0000a0 40 37 39 3d 8b 6f 44 3d c2 3e 11 3d f3 ce 85 3c
       0.045218706 0.04795794 0.03546024 0.016334033
0000b0 8f a8 ba bc 8d 14 ca 3c bf d8 1f 3d 8b 23 a0 bc
       -0.022785453 0.024668003 0.039025065 -0.019548198
0000c0 1f 54 02 be d3 eb 7c 3d ae d9 fc bc 74 bf 74 bd
       -0.12727402 0.061748337 -0.030865517 -0.059752896
0000d0 30 e3 26 3d 34 4f 97 bd 19 ef a4 3d db db dd 3d
       0.040744007 -0.07388154 0.08053417 0.1083295
0000e0 9c f2 a1 bd 20 b9 97 3c 87 a8 cc 3c 0b fb 48 bd
       -0.07907602 0.018520892 0.024982704 -0.04906754
0000f0 f4 95 b8 3c c5 45 0d bd 2e 4e e2 bc 84 cf d9 bc
       0.02253244 -0.034490366 -0.02762517 -0.026588209
000100 14 97 29 bd e1 f4 1a bd 6d 6c a3 3d 3f c7 a6 bd
       -0.041403845 -0.03783119 0.07979665 -0.08143472
000110 fd e8 c4 bd 95 b1 1b bd 6c 65 f0 3d f4 bd cc 3c
       -0.096147515 -0.038011152 0.11738095 0.02499292
000120 2d 69 ef 3b b5 24 1c bd 1a 0b cd 3d 94 4f de bc
       0.007306239 -0.038120944 0.10011883 -0.027137555
000130 ea f8 09 bc 47 e2 1b ba 77 71 c7 3c fa 75 af 3d
       -0.008421162 -0.0005946499 0.024346096 0.08567424
000140 a6 3e 53 bc e4 ee 50 3d 58 e5 0f 3d 38 bc 87 bd
       -0.0128933545 0.051009074 0.03513083 -0.06627697
000150 15 fc 29 bd 2d 66 89 3d dd 4b 8a bb e6 e4 07 bd
       -0.04150017 0.067089416 -0.0042204694 -0.03317728
000160 8d a0 a9 3a 71 1b 07 3d 0b 15 0a bb 4d 28 92 bd
       0.0012941525 0.032985155 -0.0021069671 -0.07136593
000170 04 64 9b ba c2 5c 4f bd d7 02 85 3d ed 47 87 3d
       -0.0011855369 -0.05062557 0.06494682 0.06605516
000180 22 9b 52 bd b3 e1 0d bd 12 77 ac 3d f1 57 af bd
       -0.051417477 -0.03463907 0.08421148 -0.08561695
000190 eb 8b 2b bc 99 80 96 3c b3 e7 a7 bc 23 96 c1 3d
       -0.010470371 0.018371867 -0.020496225 0.094524644
0001a0 b4 5b a4 3d 49 4d 06 3d 6a 74 dc 3d 22 02 cf bc
       0.080253035 0.03278855 0.10764392 -0.025269572
0001b0 32 9d 08 3d 09 97 87 bd 47 4e 07 3c e4 2d 4c bd
       0.033353038 -0.066206045 0.008258409 -0.049848452
0001c0 0c a1 ae 3c 46 88 95 3d d7 81 96 bc 00 2a 9b 3c
       0.021317028 0.07301383 -0.01837246 0.018940926
0001d0 37 42 1c 3d 04 9b c2 bd 9a 85 ab 3b 9d be 38 bb
       0.038149085 -0.09502223 0.0052344324 -0.0028189786
0001e0 55 61 0c 3d dd 92 6a bd ad 12 15 3d 4d 04 be 3a
       0.03427251 -0.057268966 0.036394764 0.0014497131
0001f0 91 76 82 bd 47 30 0e bd 4d 23 45 bd 4c 3b b4 bd
       -0.06370271 -0.03471401 -0.04812937 -0.088003725
000200 5c 2a 02 be 79 a3 3d 3d 96 ac cf 3c 16 fd b6 bd
       -0.12711471 0.046298478 0.02535085 -0.08934991
000210 86 52 1a bd be 45 69 3d c8 37 a5 bd 24 b6 aa bc
       -0.037676357 0.056951277 -0.0806728 -0.020838805
000220 ba 56 9e 3d 6c 06 4b bd d5 20 11 3d a4 e1 5a bd
       0.077313855 -0.04956667 0.0354317 -0.053437844
000230 0c 2a 29 bd 1f 83 a7 bd 7d cc 7e bd 8d b2 b7 3d
       -0.041299865 -0.08179306 -0.062206734 0.08969603
000240 0f 4b 87 3c 11 84 9d 3d 16 2e 1f bd f7 a1 83 bd
       0.016515283 0.07691205 -0.03886231 -0.06427377
000250 fb 7a c4 3c 42 e1 34 bc 0c c7 bc 3d fe 16 a7 bd
       0.023984423 -0.011040034 0.09217653 -0.08158682
000260 22 fe 46 bd ed ef 82 bd b2 d1 86 bd c5 d3 96 bd
       -0.048582204 -0.063934185 -0.06582965 -0.073646106
000270 0e fd 05 bd 85 34 5f bd 20 82 8e bd b1 04 aa 3d
       -0.032712035 -0.054493446 -0.06958413 0.08301676
000280 05 41 89 ba 85 6e 0e bd 0a db 5a 3d 69 56 c6 3c
       -0.0010471648 -0.03477337 0.05343155 0.024211125
000290 62 9e 7e 3c 54 c0 18 3d c5 4e 88 3d bd bc 01 3b
       0.015540691 0.037292793 0.06655649 0.0019796335
0002a0 d5 a5 98 3c 80 19 88 bd aa 65 c8 3d eb 3f c2 3c
       0.018633762 -0.06645489 0.09785016 0.02371212
0002b0 2e d3 88 3d 1c 09 ec 3c 3e c3 f1 3c 8e c1 a2 3d
       0.06680904 0.028812937 0.029512044 0.07947074
0002c0 0b 9f f2 3b 7d 97 d3 3c 24 16 21 bd f0 d0 2c 3d
       0.0074042133 0.025829071 -0.039327756 0.042191446
0002d0 73 40 20 bd 31 a9 8d bd 89 36 20 3d 43 9f 26 bd
       -0.039123964 -0.06917036 0.03911451 -0.040679228
0002e0 55 f7 2b bd cb d3 38 3c 40 e4 f2 3c 23 31 66 bd
       -0.04198392 0.011280964 0.029649854 -0.056199204
0002f0 70 33 87 bd 7c 00 da bd ae 15 8a bd c4 8d f3 3c
       -0.06601608 -0.10644624 -0.06742416 0.029730685
000300 31 f1 aa bd 1c ea 38 bd 1c 8c f0 3d fc c1 77 bc
       -0.08346785 -0.04514514 0.11745474 -0.015121933
000310 d6 ff 69 3d d2 a8 e4 bc ad 67 2d bd 98 f1 f3 3c
       0.05712875 -0.027912531 -0.0423352 0.029778287
000320 3b 98 e6 bd df b7 48 bd a7 e7 2b 3d 9b d8 19 3c
       -0.112595044 -0.04900348 0.041968968 0.009390022
000330 ab 0b db 3d ff 2d 83 3d f3 47 62 bb a0 62 42 bd
       0.10695585 0.064052574 -0.0034527748 -0.047457337
000340 47 c5 79 bb 7b 39 fb 3c 0c 9c b6 bc c0 ad 59 bd
       -0.0038111971 0.030667057 -0.022291206 -0.053144217
000350 25 54 83 3d e2 09 ca 3d aa 35 98 3c 84 6b 26 3b
       0.06412534 0.09865166 0.018580277 0.0025393674
000360 43 1d c9 bb e1 43 8a bd 86 0e 22 3c 07 f3 c4 3d
       -0.0061375215 -0.06751228 0.009891158 0.09616666
000370 42 a3 05 bd ae 7c 29 3d 76 fe 85 bd 27 1b 0c 3d
       -0.032626398 0.04137867 -0.06542675 0.034205582

output.bias f4 [2]
000000 ab 17 bc bc 9a 01 ce 3d
       -0.022960505 0.10058899
